hobbies_model.pth (torch, 856324 bytes, 5 tensors)

net.0.weight f4 [256, 768]
0.11795325 -0.051497836 0.020534322 0.031713024 0.043672767 -0.07763962 -0.11325632 0.057313383
0.036883667 0.10565026 0.01238316 -0.07565536 -0.1274421 0.19094272 0.15422873 -0.13868527
-0.29186487 0.03631993 0.08690067 -0.023878338 0.10895974 -0.2338488 0.08708427 0.19717023
0.12555504 -0.06093399 0.06876764 -0.21889026 0.08553056 0.19810034 0.09707108 -0.12221927
0.10113067 -0.051623512 -0.10165265 -0.030614953 0.2784186 -0.059998993 -0.10033408 0.125705
-0.116919585 0.18837851 0.06298077 0.06777391 0.1280486 -0.1798004 0.012996654 0.010177508
-0.16364354 0.1790654 0.15615022 -0.23853469 0.21988475 -0.16745946 -0.13478476 -0.013660026
0.098416924 0.063614845 0.037387554 0.061185434 -0.15277535 0.012290762 0.13413669 -0.011906738
-0.11908303 0.047820237 -0.0072863954 -0.047122814 0.10644449 0.0817128 0.05158417 0.1504768
-0.21577832 -0.16242601 -0.2503584 0.22671066 -0.03671243 0.18553893 -0.25698653 0.028891936
0.031248508 0.10506493 0.21277726 -0.04228303 0.026454719 0.20302154 0.07522228 -0.14824463
-0.12493943 -0.18143924 -0.0027900643 0.02808555 0.1115336 -0.13885903 0.081744865 -0.16806784
-0.14350568 0.059970275 -0.018025542 -0.22238538 -0.06732349 -0.035129994 -0.25138858 0.040095955
0.29579714 0.0021681343 0.10124069 -0.3312783 0.03164252 0.15873753 0.23314367 -0.051081125
0.22383142 0.19355619 0.03697747 -0.17731903 -0.13208877 -0.08896645 -0.06296894 0.15695094
-0.14533551 -0.095970996 -0.08497805 -0.0138981035 0.08626048 -0.14439693 0.17135262 0.025990235
0.08834694 0.10155618 0.034249157 -0.08180387 0.039322484 -0.14459318 0.016022133 -0.049275517
-0.21850257 -0.27597862 -0.22363487 -0.057907805 0.3237761 -0.08365925 -0.1060731 -0.08169062
0.17716196 0.053127967 0.060273964 0.09586795 0.31148154 -0.2153218 0.035386764 -0.07879193
0.249038 0.058883537 -0.22358143 -0.081954755 0.10495785 -0.12328885 -0.21223375 -0.038276084
0.10703226 -0.15674438 -0.1815642 0.08967241 0.2626002 0.20431411 0.15007155 0.024841804
-0.02878984 0.008387834 0.051212125 0.12213769 -0.13426746 0.030054454 -0.046451107 -0.1933178
-0.03895613 0.11969524 -0.315392 -0.038246505 -0.014113488 -0.023521958 -0.12733279 0.042255927
-0.08663145 0.13442586 -0.04082345 0.31240466 0.08978436 -0.06689495 -0.04632306 0.049257267
-0.0009824025 0.13717787 -0.18415792 -0.08059829 -0.054437686 0.09780919 -0.08693973 -0.08979372
0.02320651 -0.085879505 0.0263284 -0.06867927 0.002328782 -0.006406495 0.04265499 0.020909434
0.080130704 -0.049310274 0.1250937 -0.02269616 0.16861112 -0.32069582 -0.02575457 0.14874487
0.060902674 0.20811966 0.08181861 -0.050174244 -0.03887744 -0.09532849 0.109395295 0.018250814
0.096903026 0.33201653 0.09472834 -0.27154514 -0.20553125 0.088382766 0.088988006 0.009613946
0.078351505 0.0266403 -0.04013833 -0.03148755 -0.10166479 0.25265515 -0.18466452 -0.14774522
0.0073201233 -0.08100228 0.092916496 -0.09160396 0.0205954 -0.116475046 -0.1375663 -0.11168707
0.20552081 0.026931724 -0.018979384 -0.116680056 0.19887091 -0.28653634 0.0039639277 0.010630004
00000000: 7991 f13d 65ef 52bd 9837 a83c 84e5 013d
00000010: 37e2 323d 8501 9fbd eef2 e7bd 70c1 6a3d
00000020: 5413 173d 2a5f d83d bde2 4a3c 33f1 9abd
00000030: 2f80 02be 7d86 433e 23ee 1d3e 8303 0ebe
00000040: 506f 95be 35c4 143d faf8 b13d 819c c3bc
00000050: 4926 df3d 0f76 6fbe 3d59 b23d fee6 493e
00000060: 8091 003e eb95 79bd 0cd6 8c3d c524 60be
00000070: a52a af3d d1da 4a3e 34cd c63d 194e fabd
00000080: 991d cf3d 2d73 53bd 442f d0bd 36cc fabc
00000090: e28c 8e3e 81c1 75bd f47b cdbd d0b8 003e
000000a0: 8973 efbd 4ce6 403e 10fc 803d 0ccd 8a3d
000000b0: 2c1f 033e 991d 38be ebef 543c 90bf 263c
000000c0: 2c92 27be ec5c 373e d8e5 1f3e 7042 74be
000000d0: 7829 613e 7e7a 2bbe 0405 0abe 4dce 5fbc
000000e0: d08e c93d 8048 823d b123 193d 949d 7a3d
000000f0: 2471 1cbe 315f 493c 215b 093e 7b14 43bc
00000100: cee1 f3bd 27df 433d b7c2 eebb da03 41bd
00000110: 92ff d93d 0a59 a73d ec49 533d 9716 1a3e
00000120: fef4 5cbe 0153 26be fa2e 80be d726 683e
00000130: c65f 16bd ebfd 3d3e bd93 83be c8ae ec3c
00000140: dffc ff3c 482c d73d 48e2 593e f830 2dbd
00000150: 91b7 d83c e1e4 4f3e 240e 9a3d 71cd 17be
00000160: 3ee0 ffbd 35cb 39be 83d9 36bb ab13 e63c
00000170: ba6b e43d 1031 0ebe da69 a73d fa19 2cbe
00000180: 27f3 12be 64a3 753d 4daa 93bc feb8 63be
00000190: e6e0 89bd 78e4 0fbd 01b6 80be a83b 243d
000001a0: b972 973e 4217 0e3b 4757 cf3d 4f9d a9be
000001b0: 969b 013d 178c 223e 37bd 6e3e 713a 51bd
000001c0: 1034 653e 9833 463e b075 173d 1f93 35be
000001d0: 4742 07be 0b34 b6bd dcf5 80bd bfb7 203e
000001e0: d5d2 14be 718c c4bd f908 aebd dfb4 63bc
000001f0: 56a9 b03d cadc 13be 1077 2f3e 79e9 d43c
00000200: 3eef b43d b0fc cf3d d848 0c3d ca88 a7bd
00000210: 9d10 213d 3c10 14be d940 833c 20d5 49bd
00000220: 23bf 5fbe 124d 8dbe 8a00 65be bc30 6dbd
00000230: fbc5 a53e 8a55 abbd da3c d9bd 694d a7bd
00000240: f269 353e b69c 593d d5e1 763d 6a56 c43d
00000250: 827a 9f3e 517d 5cbe b6f1 103d aa5d a1bd
00000260: d103 7f3e dd2f 713d 88f2 64be e5d7 a7bd
00000270: 24f4 d63d dd7e fcbd ce53 59be 62c7 1cbd
00000280: bb33 db3d 9981 20be f7eb 39be 2ba6 b73d
00000290: 8973 863e b837 513e 5bac 193e 0a81 cb3c
000002a0: acd8 ebbc 206d 093c cec3 513d 5323 fa3d
000002b0: 697d 09be c234 f63c 8443 3ebd 1af5 45be
000002c0: 7790 1fbd c722 f53d 0f7b a1be 5ea8 1cbd
000002d0: 423c 67bc 1fb1 c0bc 8763 02be 8d14 2d3d
000002e0: d46b b1bd efa6 093e 7d36 27bd 81f3 9f3e
000002f0: dde0 b73d 3800 89bd 40bd 3dbd fdc1 493d
00000300: f5c3 80ba 5b78 0c3e e593 3cbe b710 a5bd
00000310: 0dfa 5ebd 2f50 c83d 750d b2bd c5e5 b7bd
00000320: 941b be3c 98e1 afbd a8ae d73c b8a7 8cbd
00000330: 7b9e 183b 93ed d1bb 00b7 2e3d 434a ab3c
00000340: 911b a43d 92f9 49bd 9018 003e 4ced b9bc
00000350: 65a8 2c3e 3e32 a4be 3ffb d2bc 9350 183e
00000360: 1575 793d 521d 553e 8490 a73d 8283 4dbd
00000370: f33d 1fbd 953b c3bd a40a e03d bb82 953c
00000380: 1875 c63d 12fe a93e ef00 c23d f707 8bbe
00000390: c976 52be 0602 b53d 583f b63d d083 1d3c
000003a0: c176 a03d c23c da3c 1768 24bd 17f9 00bd
000003b0: a135 d0bd 045c 813e b218 3dbe 864a 17be
000003c0: a5dd ef3b 86e4 a5bd 014b be3d db9a bbbd
000003d0: afb7 a83c 788a eebd 2ede 0cbe 31bc e4bd
000003e0: 0c74 523e eb9f dc3c a77a 9bbc f4f5 eebd
000003f0: d1a4 4b3e e4b4 92be d6e3 813b 7829 2e3c

net.0.bias f4 [256]
-0.16133806 -0.04517127 -0.055712067 -0.1614145 -0.012760599 -0.058291472 -0.037111875 -0.10605465
-0.03367563 -0.15770806 -0.044303223 -0.21230984 0.030982347 -0.048400335 -0.054611012 0.0059536844
-0.05072332 -0.1975366 -0.18211354 -0.031388283 -0.17299867 -0.06571363 -0.16784841 -0.1025385
-0.08348349 0.029038982 -0.023150874 -0.08053055 -0.02206022 -0.15200904 0.15808345 -0.06007436
-0.019313714 -0.120250165 0.030091794 -0.026937954 -0.15733047 -0.2989573 -0.025261823 -0.14089705
0.0759231 -0.1404922 0.100341156 -0.22959438 -0.15166628 -0.16602491 0.045991875 -0.24937871
-0.20257145 0.027156983 -0.04509159 -0.064839564 -0.016577875 -0.29327843 -0.17012703 -0.032002505
-0.054711398 -0.12564814 -0.0137178395 -0.16945632 -0.03636112 0.08500685 -0.0623964 -0.051709484
-0.16160606 -0.13461466 -0.20622101 -0.087266624 -0.050302457 -0.017816596 -0.027926877 0.009653319
-0.21651955 -0.03320392 -0.16196921 -0.04540397 -0.08814391 -0.1180051 0.02856061 -0.054061584
-0.16006948 -0.040897325 -0.03706957 -0.032006472 -0.08064303 -0.0161021 -0.061956212 -0.13693525
-0.057502918 -0.27256417 -0.14702757 -0.21294147 -0.19414853 -0.13522479 -0.053596362 -0.09196931
-0.1822446 -0.031738114 -0.046849266 -0.08294124 -0.24320734 -0.078693844 -0.17293133 -0.06636509
-0.045473963 -0.063034326 -0.094433986 -0.13173789 -0.15117295 -0.18408056 -0.05066503 -0.052402776
0.12734441 0.08378406 0.085154675 -0.091208175 0.024290701 -0.2086042 -0.12871245 0.01655414
-0.017164938 -0.028002363 0.05709217 -0.10332848 -0.16810018 -0.1790758 -0.03759138 -0.18335862
-0.24070808 0.0065066563 -0.14579852 -0.24213903 -0.2216106 -0.08300808 -0.037698645 -0.14167763
-0.03934262 -0.02875139 -0.006540611 -0.15281214 -0.020641448 -0.03314542 -0.03330423 -0.1581734
0.0007019908 -0.1326024 -0.055497628 -0.2537895 0.08552638 -0.04743398 -0.19637418 -0.19329464
0.047344822 -0.07885686 -0.052578516 -0.03567172 -0.0070934733 0.01842238 -0.06639975 -0.18472663
0.03329198 -0.100018196 -0.044153832 -0.03816398 -0.17338504 -0.1847677 -0.023148991 0.0987144
-0.18649872 -0.005013643 -0.07108198 -0.06915341 -0.040795308 -0.018565381 -0.22105332 -0.097268134
0.057633407 -0.093595006 -0.0671718 -0.011200845 -0.10901621 -0.09760156 0.008898107 -0.034774087
-0.08594251 -0.07203997 -0.08851789 0.111625805 -0.029269194 -0.062072713 -0.033124067 -0.14508983
0.019092524 -0.1628743 -0.1759398 0.016937256 -0.086901896 -0.051497262 -0.02125537 -0.13175857
-0.24630788 -0.08085758 -0.08033642 -0.24737385 -0.008255973 -0.03228945 -0.09595124 -0.00823443
-0.02454447 -0.012502099 -0.015993718 -0.04248442 -0.18348359 -0.028820252 -0.090345256 -0.08261794
-0.18956788 -0.19514672 -0.03043656 -0.23175515 -0.046422664 -0.042365916 -0.19090126 -0.010023828
-0.18135135 -0.07848684 -0.12760665 -0.04231283 -0.032519337 -0.057305086 -0.16178086 -0.26288208
-0.22252259 -0.115688115 -0.16572031 -0.0037853345 -0.042969555 0.00857042 -0.11803123 -0.22147793
-0.19319128 -0.026734924 0.07855871 0.00049810647 -0.047542553 -0.015436439 0.0020562033 -0.278001
-0.106676936 -0.0218447 -0.117989875 -0.10459129 0.0034048094 -0.016474403 -0.23892002 -0.16698582
00000000: ce35 25be 8205 39bd 5632 64bd d849 25be
00000010: d511 51bc 0ac3 6ebd 9f02 18bd 2e33 d9bd
00000020: 75ef 09bd 397e 21be 4c77 35bd c067 59be
00000030: b1ce fd3c 6e3f 46bd ccaf 5fbd 2017 c33b
00000040: 42c3 4fbd 0947 4abe f97b 3abe 0091 00bd
00000050: 9026 31be de94 86bd 74e0 2bbe b5ff d1bd
00000060: 64f9 aabd 29e3 ed3c e7a6 bdbc 33ed a4bd
00000070: a2b7 b4bc 42a8 1bbe a1e0 213e 8810 76bd
00000080: cb37 9ebc b845 f6bd 1183 f63c fcac dcbc
00000090: 3d1b 21be ee10 99be e2f1 cebc 5147 10be
000000a0: 927d 9b3d 30dd 0fbe aa7f cd3d ca1a 6bbe
000000b0: 684e 1bbe 6f02 2abe fa61 3c3d 225d 7fbe
000000c0: e46e 4fbe 5278 de3c f6b1 38bd 9bca 84bd
000000d0: 53ce 87bc 9728 96be c835 2ebe 0f15 03bd
000000e0: 0f19 60bd e8a9 00be cac0 60bc f585 2dbe
000000f0: 66ef 14bd 1218 ae3d 5e93 7fbd 53cd 53bd
00000100: 0f7c 25be 6dd8 09be 9a2b 53be d8b8 b2bd
00000110: f309 4ebd 1cf4 91bc e8c6 e4bc f428 1e3c
00000120: 4db7 5dbe d500 08bd 42db 25be 83f9 39bd
00000130: cb84 b4bd a8ac f1bd f1f7 e93c ae6f 5dbd
00000140: 41e9 23be f483 27bd 43d6 17bd 3819 03bd
00000150: 2c28 a5bd 8de8 83bc ccc5 7dbd c138 0cbe
00000160: 2e88 6bbd 888d 8bbe 658e 16be 540d 5abe
00000170: dfce 46be 5e78 0abe dc87 5bbd 685a bcbd
00000180: 549e 3abe d3ff 01bd 04e5 3fbd 19dd a9bd
00000190: 580b 79be 3d2a a1bd e914 31be 6cea 87bd
000001a0: e842 3abd 2418 81bd 9b66 c1bd 4ce6 06be
000001b0: 15cd 1abe 9d7f 3cbe 2286 4fbd 4ba4 56bd
000001c0: 9366 023e fa96 ab3d 9365 ae3d 5acb babd
000001d0: 4bfd c63c 579c 55be 32cd 03be 8c9c 873c
000001e0: 7c9d 8cbc 3665 e5bc 7bd9 693d e29d d3bd
000001f0: 7422 2cbe a65f 37be 6bf9 19bd 5dc2 3bbe
00000200: 2e7c 76be ca35 d53b 354c 15be 4bf3 77be
00000210: e4ed 62be 2400 aabd e569 1abd f113 11be
00000220: ba25 21bd 0988 ebbc 9f52 d6bb c97a 1cbe
00000230: 4118 a9bc 7ec3 07bd 046a 08bd 35f8 21be
00000240: ce05 383a ecc8 07be 7b51 63bd b3f0 81be
00000250: 7428 af3d 224a 42bd 5016 49be 08ef 45be
00000260: a5ec 413d b57f a1bd 925c 57bd 821c 12bd
00000270: 5e70 e8bb 88ea 963c 98fc 87bd fa28 3dbe
00000280: 2c5d 083d 57d6 ccbd a6da 34bd d551 1cbd
00000290: d98b 31be be33 3dbe f4a2 bdbc c62a ca3d
000002a0: 85f9 3ebe 7c49 a4bb 6e93 91bd 4ea0 8dbd
000002b0: fb18 27bd 6d16 98bc cd5b 62be 8434 c7bd
000002c0: 0211 6c3d bdae bfbd 5e91 89bd c083 37bc
000002d0: e443 dfbd 54e3 c7bd 5ec9 113c 466f 0ebd
000002e0: a002 b0bd b189 93bd de48 b5bd 129c e43d
000002f0: f3c5 efbc f53f 7ebd 1aad 07bd 6e92 14be
00000300: ed67 9c3c 85c8 26be 9029 34be 00c0 8a3c
00000310: 9ff9 b1bd cbee 52bd be1f aebc b8eb 06be
00000320: 2238 7cbe a998 a5bd 6c87 a4bd 924f 7dbe
00000330: 1044 07bc f141 04bd 1582 c4bd b4e9 06bc
00000340: 7c11 c9bc 9bd5 4cbc 4205 83bc 2504 2ebd
00000350: 1fe3 3bbe 7318 ecbc ef06 b9bd 9833 a9bd
00000360: 151e 42be 8bd4 47be 1856 f9bc 3951 6dbe
00000370: b125 3ebd e287 2dbd 9f7b 43be fb3a 24bc
00000380: 2bb4 39be b5bd a0bd 51ab 02be 3850 2dbd
00000390: ff32 05bd bdb8 6abd e2a9 25be 7b98 86be
000003a0: f6dc 63be e4ed ecbd 96b2 29be 6013 78bb
000003b0: d800 30bd f26a 0c3c 5cba f1bd 1ccb 62be
000003c0: efd3 45be 3303 dbbc 64e3 a03d 5c93 023a
000003d0: fbbb 42bd 1ee9 7cbc 5ec1 063b 2656 8ebe
000003e0: 7079 dabd a8f3 b2bc ada4 f1bd f533 d6bd
000003f0: 3923 5f3b 54f5 86bc 73a7 74be 55fe 2abe

net.2.weight f4 [64, 256]
-0.020086216 -0.0076973513 -0.16704944 -0.0046629524 -0.19575769 -0.28366643 -0.15718757 -0.008221042
0.010819976 -0.30456454 -0.06229196 -0.19224767 -0.2502421 -0.00871598 0.056464024 0.03776241
-0.049212813 -0.039827764 0.14878142 -0.31099036 0.030641483 0.39807034 -0.26498535 0.0035479702
-0.051190473 -0.21354018 0.03304843 0.024697848 -0.044094555 0.05347632 -0.3844696 -0.32404393
-0.016147338 0.28501946 -0.2204677 0.112066515 -0.099961214 0.06507578 -0.1298253 0.15002656
-0.14327829 -0.2527641 -0.14628048 -0.0019357525 0.13609718 -0.44781065 -0.343076 0.06119383
-0.12139742 -0.07853261 -0.05491819 0.0471553 -0.22592923 -0.22261398 0.09819656 -0.01641713
0.0397982 -0.14290829 0.058545813 -0.08070557 -0.014536403 -0.075524926 -0.060468964 -0.092056744
0.081531554 -0.3249555 0.026196236 -0.25532347 -0.15607628 -0.18948613 0.02197636 0.031450436
-0.08159831 -0.029518455 -0.33967638 -0.020817788 -0.49233645 -0.008906843 0.20837605 -0.005111754
-3.177972e-05 -0.05936829 -0.010872737 -0.04700353 -0.39391643 0.01895661 0.01533366 -0.45122117
-0.23824824 -0.12027794 -0.092655145 0.18104787 -0.03987073 -0.1192863 -0.055533566 -0.025761548
-0.049712814 -0.05423308 -0.031050764 0.055732742 -0.11027881 0.00379413 -0.5219301 0.19217852
0.023375839 -0.06051941 0.03404103 0.12744756 -0.22555251 -0.07344704 -0.039841183 0.036477156
-0.50162923 -0.018000597 0.10561826 -0.052989434 -0.13546847 0.12468699 0.30756876 -0.0027043372
-0.1263745 0.052217253 -0.34700462 0.031237759 -0.045364115 0.10430785 0.04476499 -0.13906653
-0.2213776 0.021737143 -0.35517251 -0.22608663 -0.08461645 -0.14650118 -0.05630593 0.13329826
-0.0441287 -0.19089605 -0.03413339 -0.30134717 -0.019007131 0.05771043 -0.038004868 -0.063894995
-0.094535716 -0.27165446 -0.10465758 0.2395691 -0.009984963 -0.036790717 -0.1336517 -0.18078288
0.0017608452 0.028104024 0.04426764 0.02040837 0.023540571 -0.20535816 0.05883146 -0.2657097
-0.16212009 0.07399074 0.007480234 -0.029429026 -0.15380251 -0.008437198 0.04097753 -0.07434981
0.2570412 -0.02819433 -0.06034319 -0.03937006 -0.03854216 0.011659339 0.11460205 -0.16552238
-0.018121852 0.036131673 -0.1502333 0.023577148 -0.023406424 0.23345362 0.026136369 0.018835805
0.27744716 -0.095078096 -0.18260956 0.085871145 -0.02832053 0.0059340373 -0.11937018 -0.07958103
0.03765983 -0.16720939 -0.001088464 -0.03034985 0.058095694 -0.008968063 0.040178366 -0.12963611
-0.21183623 0.1962269 -0.0075006513 0.15292291 0.0007381886 0.0022386312 -0.0635928 0.049361173
-0.007883668 0.103889704 0.15531649 0.024231296 -0.57256526 0.05363173 -0.13713352 0.003983887
-0.33859402 -0.1181319 -0.049624957 -0.24397297 -0.07730065 -0.27268156 0.047545765 0.008078739
0.04697572 -0.0075995517 0.014457555 0.050421797 -0.041368805 -0.16194311 0.23608692 0.21724112
-0.41122246 -0.07306303 0.061981138 -0.029906599 -0.016393447 0.008545451 -0.1301568 -0.04919205
-0.26208204 0.024676114 -0.3159958 0.017362684 0.03716722 0.04803498 -0.52800816 -0.17804252
-0.13129538 -0.027227208 -0.18102702 -0.17972119 0.008406393 0.03726151 -0.07792906 -0.21835002
00000000: d98b a4bc 103a fcbb 020f 2bbe aecb 98bb
00000010: b474 48be ba3c 91be c7f5 20be 8db1 06bc
00000020: 4546 313c e2ef 9bbe db25 7fbd 93dc 44be
00000030: bc1f 80be 78cd 0ebc d246 673d c2ac 1a3d
00000040: 6093 49bd 7022 23bd 285a 183e 213a 9fbe
00000050: d903 fb3c e0cf cb3e 29ac 87be 1085 683b
00000060: 1aad 51bd 47aa 5abe ca5d 073d 2453 ca3c
00000070: 7e9c 34bd fc09 5b3d 33d9 c4be 16e9 a5be
00000080: 6c47 84bc 12ee 913e 49c2 61be 2183 e53d
00000090: 77b8 ccbd 7346 853d ecf0 04be 90a0 193e
000000a0: 8bb7 12be 4c6a 81be 8dca 15be 13b9 fdba
000000b0: 0f5d 0b3e 7047 e5be a8a7 afbe 62a6 7a3d
000000c0: 369f f8bd b4d5 a0bd e5f1 60bd ea25 413d
000000d0: fe59 67be ebf4 63be 471b c93d 387d 86bc
000000e0: 7003 233d 8d56 12be bccd 6f3d f648 a5bd
000000f0: 182a 6ebc d0ac 9abd 4eae 77bd 3f88 bcbd
00000100: 04fa a63d 9160 a6be 7d99 d63c c2b9 82be
00000110: 76d2 1fbe a708 42be c407 b43c 2cd2 003d
00000120: 041d a7bd b0d0 f1bc 10ea adbe 118a aabc
00000130: 8613 fcbe 02ee 11bc 8860 553e 8080 a7bb
00000140: 374b 05b8 2a2c 73bd 9023 32bc c686 40bd
00000150: 6aaf c9be e44a 9b3c 083a 7b3c 7606 e7be
00000160: 59f7 73be 4854 f6bd fbc1 bdbd 9d64 393e
00000170: 7e4f 23bd 604c f4bd 2a77 63bd e209 d3bc
00000180: aa9f 4bbd 8223 5ebd 2c5e febc 0448 643d
00000190: dbd9 e1bd f0a6 783b 369d 05bf 72ca 443e
000001a0: b07e bf3c 33e3 77bd 9b6e 0b3d 9d81 023e
000001b0: 3df7 66be 676b 96bd 8230 23bd 1269 153d
000001c0: c66a 00bf fd75 93bc 634e d83d 730b 59bd
000001d0: 3fb8 0abe e55b ff3d a779 9d3e 403b 31bb
000001e0: 5168 01be c2e1 553d 97aa b1be 54e6 ff3c
000001f0: b9cf 39bd 5b9f d53d 7f5b 373d 7567 0ebe
00000200: cfb0 62be 1812 b23c 2cd9 b5be 4183 67be
00000210: 644b adbd 6804 16be 0ca1 66bd 577f 083e
00000220: 4cc0 34bd 417a 43be 74cf 0bbd 2d4a 9abe
00000230: d8b4 9bbc c661 6c3d feaa 1bbd 61db 82bd
00000240: f19b c1bd 4b16 8bbe b756 d6bd 9a51 753e
00000250: f897 23bc ddb1 16bd fedb 08be 261f 39be
00000260: 29cc e63a 693a e63c fc51 353d 742f a73c
00000270: 28d8 c03c 6949 52be 42f9 703d 1a0b 88be
00000280: cf02 26be 7588 973d c01c f53b 2415 f1bc
00000290: 687e 1dbe 2c3c 0abc 0ed8 273d b744 98bd
000002a0: e79a 833e ccf7 e6bc 6c2a 77bd 8042 21bd
000002b0: 62de 1dbd d006 3f3c 7bb4 ea3d b37e 29be
000002c0: 4774 94bc cefe 133d c2d6 19be dd24 c13c
000002d0: d4be bfbc 770e 6f3e f01b d63c 8c4d 9a3c
000002e0: 8e0d 8e3e 4eb8 c2bd 00fe 3abe 36dd af3d
000002f0: 7500 e8bc 5072 c23b 5a78 f4bd 61fb a2bd
00000300: 3241 1a3d f038 2bbe cbaa 8eba 40a0 f8bc
00000310: c0f5 6d3d c8ee 12bc 1292 243d 54bf 04be
00000320: 99eb 58be b4ef 483e 06c8 f5bb d397 1c3e
00000330: 0083 413a 00b6 123b f13c 82bd f12e 4a3d
00000340: 802a 01bc 20c4 d43d 490b 1f3e b680 c63c
00000350: a393 12bf f2ac 5b3d bb6c 0cbe 448b 823b
00000360: 325c adbe 23ef f1bd 8a43 4bbd 0dd4 79be
00000370: ce4f 9ebd eb9c 8bbe 59bf 423d b05c 043c
00000380: 9d69 403d a905 f9bb 61df 6c3c 1687 4e3d
00000390: 5672 29bd 6ad4 25be c5c0 713e 7574 5e3e
000003a0: c08b d2be 12a2 95bd efdf 7d3d affe f4bc
000003b0: 8d4b 86bc 3802 0c3c d347 05be 9a7d 49bd
000003c0: 9e2f 86be 9025 ca3c 34ca a1be 303c 8e3c
000003d0: a83c 183d 54c0 443d 8b2b 07bf c750 36be
000003e0: 4c72 06be 980b dfbc 265f 39be d508 38be
000003f0: f8ba 093c 869f 183d 4599 9fbd 2697 5fbe

net.2.bias f4 [64]
0.036722828 -0.4878715 -0.18399017 0.18184009 -0.35426855 -0.525093 -0.35294443 0.35310608
-0.23510358 -0.20147571 -0.26895103 0.13566458 0.0349723 0.08421492 -0.2713573 0.42751694
-0.23293757 -0.11571914 -0.124843724 -0.098743506 0.36528063 -0.4365629 0.087596074 0.3680602
-0.048874706 -0.16278146 -0.7310504 -0.09869388 0.25688818 -0.31255627 -0.15474316 0.17250584
-0.25517842 0.43257144 0.16968958 -0.7860903 0.103658564 -0.55092573 -0.23571055 -0.117386006
-0.32804742 0.39186314 -0.24261339 -0.8135871 0.10025933 -0.30283335 -0.044060215 -0.7574835
0.08775313 -0.41890877 0.10404471 -0.22046497 0.17807528 -0.45142233 -0.28908813 -0.21720313
0.11432398 -0.4620841 -0.18361296 0.09808366 -0.1292359 -0.3885728 0.018421693 -0.221855
00000000: ad6a 163d 4bca f9be eb67 3cbe 4a34 3a3e
00000010: b062 b5be 7f6c 06bf 22b5 b4be 52ca b43e
00000020: febe 70be a64f 4ebe f3b3 89be a8eb 0a3e
00000030: 1d3f 0f3d df78 ac3d 58ef 8abe 80e3 da3e
00000040: 3087 6ebe 28fe ecbd 11ae ffbd 093a cabd
00000050: 1006 bb3e 2c85 dfbe 9265 b33d 6372 bc3e
00000060: d830 48bd 2fb0 26be 1e26 3bbf 0420 cabd
00000070: d986 833e 6007 a0be fe74 1ebe 5fa5 303e
00000080: bfa6 82be 017a dd3e 1bc3 2d3e 373d 49bf
00000090: f14a d43d 7809 0dbf 1b5e 71be 1368 f0bd
000000a0: d5f5 a7be 49a2 c83e a56f 78be 3f47 50bf
000000b0: c354 cd3d f90c 9bbe 7c78 34bd 70ea 41bf
000000c0: eab7 b33d 367b d6be 6515 d53d 92c1 61be
000000d0: 5e59 363e d420 e7be 5c03 94be 7f6a 5ebe
000000e0: b122 ea3d 4a96 ecbe 0905 3cbe 16e0 c83d
000000f0: 6a56 04be 04f3 c6be 17e9 963c f52d 63be

net.4.weight f4 [1, 64]
0.07525571 -0.32957414 -0.47241405 0.1344285 -0.33068353 0.014360417 -0.3258722 0.12671094
0.030489324 -0.25696066 -0.0059114043 0.030399298 0.3626022 0.22492236 -0.32289067 0.23626138
-0.37258393 0.092868425 0.0019238674 0.00080609147 0.15104982 -0.2098592 0.14916569 0.1272323
-0.22901838 0.22446933 0.034904327 0.26100996 0.11939615 -0.31175545 -0.0006364539 0.1816942
-0.29315373 0.13860495 0.2538903 0.04784365 -0.1980281 -0.16930594 -0.3609325 0.076292515
0.01453252 0.15135467 -0.28318185 0.005692992 0.12395274 -0.055506054 0.27611774 -0.03503722
-0.0855834 -0.2795608 0.07851576 -0.35736245 0.1636021 -0.21917726 0.14293763 -0.48126584
0.0024807714 -0.17958774 -0.36383078 0.23128682 0.022571843 -0.008063649 0.003984794 0.10359317
00000000: aa1f 9a3d f1bd a8be 41e0 f1be a0a7 093e
00000010: 5a4f a9be f447 6b3c b9d8 a6be 83c0 013e
00000020: bfc4 f93c 5990 83be 74b4 c1bb f307 f93c
00000030: ffa6 b93e 0c52 663e ed51 a5be 81ee 713e
00000040: 52c3 bebe cd31 be3d 472a fc3a e24f 533a
00000050: ceac 1a3e 55e5 56be e4be 183e 2f49 023e
00000060: cb83 6abe 4adb 653e d7f7 0e3d 19a3 853e
00000070: f885 f43d 699e 9fbe b3d7 26ba 0b0e 3a3e
00000080: 3f18 96be 75ee 0d3e e9fd 813e b4f7 433d
00000090: e1c7 4abe 895e 2dbe 25cc b8be 403f 9c3d
000000a0: cf19 6e3c b8fc 1a3e 36fd 90be 478c ba3b
000000b0: efda fd3d 515a 63bd 4e5f 8d3e 3083 0fbd
000000c0: 5a46 afbd 9822 8fbe dfcc a03d 36f8 b6be
000000d0: 4f87 273e 0170 60be 3e5e 123e 7a68 f6be
000000e0: 7094 223b d9e5 37be 0748 babe 74d6 6c3e
000000f0: 96e8 b83c 651d 04bc e092 823b a828 d43d
