hobbies_model.pth (torch, 856324 bytes, 5 tensors)

net.0.weight f4 [256, 768]
0	0xbe80be6a	-0.25145274
1	0xbeee2d44	-0.4651891
2	0xbe88d497	-0.26724693
3	0xbf2313fc	-0.6370237
4	0xbd0c98fb	-0.03432558
5	0xbeae04ca	-0.3398803
6	0xbe7bc661	-0.24587394
7	0x3e327171	0.17426087
8	0xbeebbe40	-0.46043587
9	0x3f28caff	0.6593475
10	0xbef9ab0c	-0.4876331
11	0x3f1b8b1b	0.60759133
12	0xbe49102f	-0.1963508
13	0xbde8599a	-0.11345215
14	0xbecaae3c	-0.39586055
15	0x3e64435d	0.22291322
16	0xbee88dd2	-0.454207
17	0x3ebc9cd7	0.3683841
18	0xbe602673	-0.21889667
19	0x3c3eeaf8	0.011652701
20	0x3dc76f93	0.09738078
21	0xbea22c18	-0.31674266
22	0xbd8687d7	-0.06568878
23	0xbe5f0a00	-0.21781158
24	0x3e1dd908	0.15414822
25	0xbe2dcc49	-0.1697246
26	0x3e7e8724	0.2485624
27	0x3ca853ee	0.020547833
28	0x3e8956dc	0.2682408
29	0x3d6f8b0c	0.058482215
30	0xbdb857e3	-0.09001138
31	0xbaf7f62a	-0.0018917967
32	0x3ec97ed4	0.39354575
33	0xbeee4638	-0.46537948
34	0xbe81bf70	-0.25341368
35	0xbec05d86	-0.37571353
36	0xbf20496b	-0.62612027
37	0x3db6be2a	0.0892299
38	0x3e4b5bdf	0.19859265
39	0xbcf02747	-0.029315604
40	0xbd62a636	-0.055334292
41	0xbcbaf906	-0.022823822
42	0xbf11e6d6	-0.5699285
43	0x3d9f3f1f	0.07775711
44	0xbe0ef136	-0.13959202
45	0xbde5066a	-0.11182864
46	0x3c6e1ea2	0.014533671
47	0x3df3b6ef	0.11900126
48	0x3e2676b2	0.16256216
49	0xbe28faf2	-0.16501978
50	0xbe9c8629	-0.30571106
51	0xbf2165df	-0.6304607
52	0xbe3fb830	-0.18722606
53	0xbe9b8b29	-0.30379608
54	0xbf29435c	-0.6611841
55	0xbe40bbfc	-0.1882171
56	0x3e09fef5	0.13476165
57	0x3f070e4b	0.52756184
58	0x3f1cf8ca	0.6131712
59	0xbdbb6820	-0.0915072
60	0x3ea95b55	0.33077493
61	0x3eb63fe9	0.35595635
62	0x3f056c60	0.5211849
63	0x3c106575	0.008813252
64	0x3e370055	0.1787122
65	0xbdb7b53a	-0.08970113
66	0x3c926df9	0.017874705
67	0xbbf77da4	-0.0075528193
68	0xbd75008a	-0.059814967
69	0x3bc38006	0.0059661893
70	0xbe0745ac	-0.13210171
71	0x3c940df3	0.018073058
72	0xbee54f71	-0.4478717
73	0xbd997f7d	-0.074950196
74	0xbd2781ad	-0.040895153
75	0xbe658c2c	-0.22416753
76	0x3efe8d4e	0.49717182
77	0x3e851614	0.25993407
78	0x3da68694	0.081311375
79	0x3e57e77d	0.210844
80	0xbe5ec2a5	-0.21753938
81	0xbe1a2d5d	-0.15056367
82	0xbe10477f	-0.14089774
83	0x3e47c089	0.1950704
84	0x3f02c6b3	0.5108444
85	0x3f0bd391	0.546197
86	0x3eed4587	0.46342108
87	0x3e875ee0	0.2643957
88	0x3e92f4de	0.28702444
89	0xbf004a6b	-0.5011355
90	0x3e394f63	0.1809669
91	0xbdc4d435	-0.09610788
92	0x3ec6c84c	0.3882469
93	0xbec69fa1	-0.38793662
94	0x3e6e56a8	0.23275244
95	0xbe53fb32	-0.20701292
96	0x3eb99e62	0.3625365
97	0x3e0792f1	0.13239647
98	0xbcb54715	-0.022128621
99	0xbe952671	-0.2913089
100	0xbe05f936	-0.13083348
101	0xbf7644cb	-0.9619872
102	0xbebad816	-0.36492985
103	0xbf0379dd	-0.51357824
104	0x3ec233c2	0.37930113
105	0x3d763a36	0.060114108
106	0x3dceb342	0.100927845
107	0x3afb8703	0.0019190017
108	0x3e08e0ca	0.13367
109	0xbe5732f7	-0.21015535
110	0xbc45782c	-0.012052577
111	0x3e77e199	0.24207152
112	0x3ed96267	0.42457888
113	0x3d377b3c	0.04479526
114	0xbd243ed4	-0.04009898
115	0x3e1f2dbc	0.1554479
116	0xbf446d9b	-0.76729745
117	0xbcdca6e8	-0.026935056
118	0x3ebcbc96	0.3686263
119	0x3e04ef92	0.12982014
120	0x3eddb4bf	0.4330196
121	0x3e9f617c	0.31129062
122	0xbf69d9a4	-0.9134772
123	0xbefc95cd	-0.4933304
124	0xbc148392	-0.009064572
125	0xbbb1cc3f	-0.0054259594
126	0xbe02d14d	-0.12775154
127	0xbd006b40	-0.03135228
128	0x3d4e1fa3	0.05032314
129	0x3ec1c7df	0.37847802
130	0xbf4b71a7	-0.79470295
131	0xbe49e8ea	-0.19717756
132	0x3e965ebb	0.2936915
133	0xbdda4110	-0.10656941
134	0x3e5c21a0	0.21497202
135	0x3f17ed56	0.5934652
136	0xbeffa40b	-0.49929842
137	0xbd9a1658	-0.07523793
138	0x3ea4ee2b	0.32212958
139	0x3ecdb9a1	0.40180686
140	0x3d02facc	0.03197746
141	0x3e8d0d3c	0.2754916
142	0xbde31281	-0.11087514
143	0xbec004e9	-0.37503746
144	0x3effce60	0.4996214
145	0x3e0baff7	0.13641344
146	0x3e911217	0.28334114
147	0xbf03d050	-0.51489735
148	0xbdde359b	-0.10850068
149	0xbf2ee784	-0.68322015
150	0x3ea15284	0.31508267
151	0x3e74afaf	0.23895143
152	0x3ee4943e	0.4464435
153	0xbe1f618a	-0.15564552
154	0xbf45018a	-0.76955473
155	0x3e5a9596	0.21346125
156	0x3e911565	0.28336635
157	0x3e01be1f	0.12670182
158	0xbe851962	-0.25995928
159	0x3dcded3c	0.100550145
160	0xbd4250f4	-0.047440484
161	0x3df1eb59	0.11812467
162	0xbeb76c42	-0.35824782
163	0xbe6f82bd	-0.23389716
164	0xbe9b0493	-0.30276927
165	0x3d000798	0.031257242
166	0x3d6532c5	0.05595662
167	0x3f0ceb2d	0.5504635
168	0xbf01cdd3	-0.5070469
169	0x3f11c502	0.56941235
170	0xbf1489b9	-0.5802265
171	0x3e44b78c	0.19210643
172	0x3e90807b	0.28223023
173	0xbea09849	-0.31366184
174	0xbe900461	-0.2812834
175	0x3e19ac45	0.15007122
176	0x3e05d271	0.13068558
177	0xbd13ffce	-0.036132626
178	0x3e1975c7	0.14986335
179	0x3dc50391	0.09619821
180	0xbe0e5557	-0.13899742
181	0x3eeb7f48	0.45995545
182	0xbe0e24a7	-0.1388117
183	0x3ec52761	0.38506606
184	0x3cfdeb81	0.030996086
185	0xbeaf941f	-0.34292695
186	0xbe1b57ce	-0.15170214
187	0x3edde296	0.43336934
188	0xbedbf538	-0.42960525
189	0xbeb5d3de	-0.35513204
190	0xbcb428a8	-0.021992043
191	0xbe7b4114	-0.24536544
192	0x3d2d054b	0.042241376
193	0x3ecbbb5c	0.3979138
194	0x3ea368a3	0.3191577
195	0x3e163b28	0.14671004
196	0x3dbfdbc5	0.093680896
197	0xbd35d590	-0.044393122
198	0xbdd51c9d	-0.10405848
199	0xbe0755b7	-0.13216291
200	0xbe5bda13	-0.21469907
201	0xbd73ca11	-0.059518877
202	0xbf79d174	-0.97585225
203	0x3f0345ac	0.51278186
204	0xbe756f7d	-0.2396831
205	0x3e59637d	0.21229358
206	0x3e239e3c	0.1597833
207	0x3e16e82c	0.14737004
208	0xbddb8077	-0.10717862
209	0xbeba79b2	-0.3642097
210	0xbde0574f	-0.10954153
211	0xbe89d9cf	-0.26923987
212	0x3e58778f	0.21139358
213	0xbe9ee8d8	-0.3103702
214	0x3f1a837c	0.6035688
215	0x3e90c02f	0.28271624
216	0xbf18efcc	-0.597409
217	0x3d91b836	0.071152136
218	0x3e42478e	0.18972608
219	0x3e646390	0.22303605
220	0x3bad194a	0.0052825557
221	0xbeff289b	-0.49835667
222	0x3f1cfb4e	0.6132096
223	0x3d00812e	0.031373195
224	0xbeded970	-0.43525267
225	0x3e841932	0.25800472
226	0xbebcf6c5	-0.3690702
227	0x3cb9c9d6	0.02267925
228	0xbe26665a	-0.16249982
229	0x3ebcf49d	0.36905375
230	0x3eabbfe0	0.33544827
231	0xbe9ac9c0	-0.30232048
232	0x3ed31513	0.41227016
233	0x3d270473	0.040775727
234	0xbd8bc39e	-0.068244204
235	0xbe423583	-0.18965726
236	0xbe52cebe	-0.20586678
237	0x3e7ab633	0.24483566
238	0xbede3ba5	-0.4340488
239	0xbe61424b	-0.21997945
240	0xbd36e794	-0.044654444
241	0xbef61dc8	-0.48069596
242	0x3dda51e5	0.106601514
243	0xbd90acdc	-0.0706422
244	0xbe6eca50	-0.23319364
245	0x3de301e2	0.110843435
246	0xbe2a1831	-0.16610791
247	0x3d383a5f	0.044977542
248	0x3e5ecb13	0.21757154
249	0xbe452ed1	-0.1925614
250	0xbeacc87e	-0.33746713
251	0xbd3ad7c5	-0.04561593
252	0x3e3d8662	0.18508294
253	0x3e89becc	0.2690338
254	0x3ec6eda2	0.38853174
255	0xbe5d2a97	-0.21598278

net.0.bias f4 [256]
0	0xbe90aecc	-0.2825836
1	0xbd59c8c9	-0.05317
2	0x3c0645d9	0.008195364
3	0xbe1db8ba	-0.15402499
4	0xbd67ece9	-0.05662242
5	0xbc57ec83	-0.013178947
6	0xbcb89bb9	-0.022535192
7	0xbd9f0623	-0.07764842
8	0xbdf63957	-0.120226555
9	0xbd27fe1e	-0.04101383
10	0xbcc434a1	-0.023950877
11	0xbd905828	-0.070480645
12	0xbccc73c3	-0.024957543
13	0x3c02cd33	0.007983494
14	0xbbb90ff6	-0.0056476546
15	0xbce47657	-0.02788846
16	0xbd8b6ca3	-0.0680783
17	0xbd22171f	-0.03957283
18	0xbd95da1d	-0.073169924
19	0xbd24e228	-0.040254742
20	0xbd3256e3	-0.043539893
21	0xbe6bb0e0	-0.23016691
22	0xbdc5e528	-0.09662849
23	0x3de02a44	0.109455615
24	0xbda299d1	-0.079394944
25	0xbc57d9a5	-0.013174449
26	0xbdcec95f	-0.10097002
27	0xbdcd5976	-0.10026829
28	0xbe30e2e3	-0.1727405
29	0xbd1de846	-0.03855159
30	0xbe9af145	-0.302622
31	0xbcfb3df7	-0.030669196
32	0xbd47cf93	-0.048781943
33	0xbd2607b3	-0.040534686
34	0xbe436bba	-0.19084063
35	0xbdee151b	-0.11625119
36	0x3de656d4	0.1124703
37	0xbe04e50b	-0.12977998
38	0xbdbb04c7	-0.091317706
39	0xbe27afbc	-0.16375631
40	0x3c48f336	0.012265017
41	0xbb69c11c	-0.003566808
42	0xbcac70af	-0.021049825
43	0xbd1f49d1	-0.038888756
44	0xbdd1b60e	-0.10239802
45	0x3d63521c	0.055498227
46	0xbe7d215a	-0.24719754
47	0xbbc40a43	-0.0059826686
48	0xbe0d2c17	-0.1378635
49	0xbdcfbdbf	-0.10143613
50	0xbd584198	-0.05279693
51	0xbc3502a9	-0.0110479975
52	0xbe3bf04f	-0.18353389
53	0x3c10243f	0.008797704
54	0xbcdb3a2a	-0.026761133
55	0xbb06bc94	-0.0020559179
56	0xbe71f11d	-0.23627134
57	0xbd9dc60c	-0.0770379
58	0x3d90db9f	0.070731394
59	0x3ccb8d5c	0.024847679
60	0xbd2b4cc7	-0.041821267
61	0xbe64bd42	-0.22337821
62	0xbe0fe468	-0.14051974
63	0xbe0a6a7a	-0.1351718
64	0xbe55e750	-0.2088902
65	0xbd693fd9	-0.056945655
66	0xbcb4bec2	-0.022063617
67	0xbe11301d	-0.1417851
68	0xbb9bf3c9	-0.004759286
69	0xbcd324a5	-0.02577431
70	0xbcc95e11	-0.024580987
71	0xbbba7e8f	-0.0056913565
72	0xbe60f456	-0.21968207
73	0xbd73a8f2	-0.05948729
74	0xbca34940	-0.01993239
75	0xbd036293	-0.03207643
76	0xbe6a1a36	-0.22861561
77	0xbd39be26	-0.045347355
78	0xbe1d9836	-0.15390095
79	0xbe74e2f2	-0.23914698
80	0xbdad7e22	-0.084713235
81	0xbdb0d1aa	-0.0863374
82	0xbd23c250	-0.039980233
83	0xbe8ce8ba	-0.27521306
84	0xbdd0ad29	-0.10189278
85	0xbbdf65f6	-0.0068175746
86	0xbd262a7c	-0.04056786
87	0xbd2becf9	-0.04197404
88	0xbd7cb7db	-0.061698776
89	0xbe9348c5	-0.28766456
90	0xbd65ded0	-0.056120694
91	0xbd4e2077	-0.05032393
92	0xbe2a40d0	-0.16626287
93	0xbe7f6a52	-0.24942902
94	0x3bce9ca6	0.006305295
95	0xbcd99036	-0.026558023
96	0xbcfdb160	-0.030968368
97	0xbe4ea581	-0.20180322
98	0xbcec204b	-0.028823992
99	0xbce3d1f2	-0.02781007
100	0xbe94cde4	-0.29063332
101	0xbd23013a	-0.03979609
102	0xbd5bfada	-0.053706028
103	0x3db697a9	0.08915646
104	0xbd5beadf	-0.053690787
105	0xbc962b75	-0.018331269
106	0xbe32303f	-0.17401217
107	0xbc8da890	-0.01729229
108	0xbe146261	-0.14490654
109	0xbe624f69	-0.22100605
110	0xbe50ddf6	-0.20397171
111	0xbbc8b469	-0.006125022
112	0xbd81d210	-0.06338894
113	0xbe40554b	-0.18782537
114	0xbdf14c22	-0.11782099
115	0xbe23ef39	-0.16009225
116	0xbe608c4e	-0.21928522
117	0xbd807e30	-0.06274068
118	0xbcb82ef3	-0.022483325
119	0xbd920c2c	-0.07131228
120	0xbe4ee5e1	-0.2020488
121	0xbba28275	-0.0049593993
122	0xbe401835	-0.18759234
123	0xbce9aab3	-0.028523779
124	0xbe724516	-0.23659167
125	0xbd654fea	-0.055984415
126	0xbdee45f5	-0.11634437
127	0xbced64a2	-0.02897865
128	0xbdb097be	-0.086226925
129	0x3de037a3	0.10948112
130	0xbd068044	-0.032837167
131	0xbe7cc2c4	-0.24683672
132	0xbdd6a477	-0.10480588
133	0xbe860895	-0.26178423
134	0xbe076af3	-0.13224392
135	0xbd753b6b	-0.05987112
136	0xbe33a7f2	-0.17544535
137	0xbd383661	-0.044973735
138	0xbe832a8a	-0.25618392
139	0xbd586632	-0.052831836
140	0x3d5cfabd	0.05395006
141	0xbc4e3306	-0.012585407
142	0xbca7efb4	-0.020500042
143	0xbe06c922	-0.13162664
144	0xbd345705	-0.0440283
145	0xbd042b2b	-0.03226773
146	0x3d4aa992	0.04947812
147	0xbbc47d6a	-0.005996396
148	0xbe5f6cea	-0.21818891
149	0xbe6b969b	-0.2300667
150	0xbd09da65	-0.033655543
151	0xbc15b2ab	-0.009136836
152	0xbc300939	-0.010744386
153	0xbe1b8057	-0.15185677
154	0xbe286cbb	-0.16447727
155	0xbe588b77	-0.21146952
156	0xbdb565b1	-0.08857287
157	0xbd4912c7	-0.049090173
158	0xbc078d67	-0.008273459
159	0x3e138eaf	0.14409898
160	0xbcc8d07a	-0.024513472
161	0xbe63c43d	-0.22242828
162	0xbe6056a3	-0.2190805
163	0xbe423f05	-0.18969353
164	0xbdb966c9	-0.09052808
165	0xbdbf96f4	-0.09354964
166	0xbe94c2b4	-0.29054797
167	0xbd8c200f	-0.06842052
168	0x3d228c72	0.03968472
169	0xbb108b1d	-0.0022055574
170	0x3b2f35ff	0.0026735065
171	0xbd1d954a	-0.03847245
172	0xbd21f889	-0.039543662
173	0xbd431534	-0.047627643
174	0xbe6f798b	-0.23386209
175	0xbd216aaf	-0.039408382
176	0xbe692d3a	-0.22771159
177	0xbd6908f7	-0.056893315
178	0xbe42c9bc	-0.19022268
179	0xbdafc8c8	-0.08583218
180	0xbd846231	-0.06464041
181	0xbc46d2f9	-0.012135261
182	0xbe7a1dc4	-0.24425417
183	0xbd1afad6	-0.037836872
184	0xbd4d58d3	-0.050133538
185	0xbe80d844	-0.25164998
186	0xbd6497a9	-0.055808697
187	0xbd986e8f	-0.074429624
188	0xbd369f87	-0.04458573
189	0xbe1350ec	-0.14386338
190	0xbd4394fa	-0.047749497
191	0xbcc315c5	-0.023814091
192	0xbe06e213	-0.13172178
193	0xbe5bbe06	-0.21459207
194	0xbddaec18	-0.106895626
195	0xbe12f4cb	-0.14351194
196	0xbde657ba	-0.11247201
197	0xbc3d4ea9	-0.011554399
198	0x3b3d972c	0.0028929217
199	0xbc7d8231	-0.015472935
200	0x3d92acba	0.07161851
201	0xbcad0f17	-0.02112536
202	0xbd7b11a3	-0.061296117
203	0xbd3c7637	-0.046011176
204	0xbe2205e9	-0.15822567
205	0xbe41709f	-0.18890618
206	0xbce7a9bf	-0.028279183
207	0xbd9bfabc	-0.07616183
208	0xbe81bb5f	-0.25338265
209	0xbd1c4bfc	-0.0381584
210	0xbe01c98f	-0.12674545
211	0xbdf17c0b	-0.117912374
212	0xbe01a968	-0.1266228
213	0xbdfb5c82	-0.12273504
214	0xbcdbf613	-0.026850736
215	0xbe68e5a4	-0.22743851
216	0x3dd20b54	0.10256067
217	0xbdafc2e5	-0.08582095
218	0x3dabc220	0.08386636
219	0x389e5752	7.550292e-05
220	0xbc78a41e	-0.015175847
221	0xbe8f29cf	-0.27961585
222	0xbe5b76fe	-0.2143211
223	0xbc913ba8	-0.017728642
224	0x3c008020	0.007843047
225	0xbd1e8ce2	-0.038708575
226	0xbe2600d4	-0.16211253
227	0x3c5e0dcc	0.013553094
228	0x3c4fcc8c	0.012683045
229	0x3ce51c09	0.02796747
230	0xbe4508e4	-0.19241673
231	0xbe7bc5ae	-0.24587128
232	0xbe3b37ba	-0.18282977
233	0xbe2567b9	-0.16152848
234	0xbd3fe20d	-0.04684644
235	0x3d47510a	0.04866127
236	0xbcfc5367	-0.030801488
237	0xbe0a4a7a	-0.13504973
238	0xbe60707b	-0.21917908
239	0xbe46f476	-0.19429192
240	0xbe4263a9	-0.1898333
241	0xbe888cc4	-0.26669896
242	0xbdbfff6c	-0.0937489
243	0xbd326838	-0.043556422
244	0xbdf727a9	-0.120681114
245	0xbd2197b2	-0.03945131
246	0xbd9ae39b	-0.075629435
247	0xbe62172a	-0.22079149
248	0xbe7656bb	-0.24056523
249	0xbe747083	-0.23871045
250	0xbcf8d767	-0.03037615
251	0xbe66f35c	-0.22553772
252	0xbe873a1b	-0.26411518
253	0xbd98f448	-0.07468468
254	0xbca55e69	-0.02018662
255	0xbce629d4	-0.028096117

net.2.weight f4 [64, 256]
0	0xbc441363	-0.011967513
1	0xbc5a4280	-0.013321519
2	0xbc1a30f8	-0.009411089
3	0x3c934320	0.017976344
4	0x3cedfbf8	0.029050812
5	0xbd99244e	-0.07477628
6	0xbc8d067f	-0.017215012
7	0xbcb43832	-0.021999452
8	0xbd2d2816	-0.042274557
9	0xbc8c9004	-0.017158516
10	0xbd64cd81	-0.055860046
11	0xbc56f1c6	-0.013119167
12	0xbcdbd3c4	-0.026834376
13	0xbd1f2a46	-0.038858674
14	0xbcab2688	-0.020892397
15	0x3d1e1f38	0.03860399
16	0x3b99638e	0.0046810573
17	0xbcf9ddac	-0.03050121
18	0xba065580	-0.0005124435
19	0xbd4623da	-0.048374034
20	0xbd75fa18	-0.06005296
21	0x3cf9ba25	0.030484268
22	0x3cab0214	0.020875014
23	0xbceb088f	-0.028690604
24	0x3d2cb0fc	0.042160973
25	0xbc806877	-0.015674813
26	0x3c8da411	0.017290147
27	0xbd249346	-0.040179513
28	0x3c60651c	0.013695981
29	0xbd31c669	-0.04340211
30	0xbbd3e860	-0.0064669102
31	0x3c34e3e0	0.011040658
32	0x3d38a61e	0.045080297
33	0x3d0d6eba	0.034529425
34	0xbc6c98d7	-0.014440737
35	0xbc602297	-0.013680122
36	0xbdb0fc64	-0.0864189
37	0xbc8687c4	-0.01642216
38	0x3c2137e4	0.0098399855
39	0xbd73df6e	-0.05953925
40	0x3b6311c0	0.003464803
41	0xbd01a854	-0.03165467
42	0xbad93200	-0.0016570687
43	0x3d6fbda6	0.058530472
44	0xbd802c6b	-0.06258472
45	0xbced2d2b	-0.028952202
46	0xbc9a04a8	-0.018801048
47	0xbca425f8	-0.020037636
48	0xbb58abef	-0.0033061465
49	0x3d12a13e	0.035798304
50	0xbdb83bcd	-0.08995781
51	0x3d023ba8	0.031795174
52	0xbc84435e	-0.016145404
53	0xbc822e88	-0.015891328
54	0xbd483da4	-0.04888691
55	0xbd639a4e	-0.05556708
56	0xbd6625a3	-0.056188237
57	0xbce86574	-0.02836869
58	0xbc48aad7	-0.012247763
59	0xbd5ddb52	-0.05416424
60	0x3c8410ec	0.01612135
61	0x3cc76905	0.02434207
62	0xbcfebaa0	-0.03109485
63	0xbd2468ac	-0.040138885
64	0xbc02f82b	-0.007993738
65	0x3c102c4f	0.0087996265
66	0xbcf19070	-0.029487818
67	0xbdacf6da	-0.08445521
68	0xbd3fa4da	-0.046788074
69	0xbc74d230	-0.014942691
70	0x3aa4a600	0.0012561679
71	0x3c81bf9a	0.015838433
72	0xbcb2683d	-0.02177822
73	0xbd5b8114	-0.053589895
74	0xbab8479f	-0.0014059431
75	0xbdb8ff55	-0.09033076
76	0xbcbf89e4	-0.023381181
77	0xbda2790c	-0.07933244
78	0xbdaaab19	-0.083334155
79	0x3cdb69fb	0.026783934
80	0xbd35c12e	-0.044373684
81	0x3d065e5a	0.032804824
82	0x3a49e135	0.00077011
83	0xbcb3c7b6	-0.021945816
84	0x3cb25954	0.02177111
85	0xbd9eb680	-0.07749653
86	0xbd6d62fc	-0.057955727
87	0x3cd28fb2	0.025703285
88	0xbd9ebfbe	-0.07751416
89	0x3d206fd4	0.039169148
90	0x3a167a00	0.00057402253
91	0xbd2b4621	-0.041814927
92	0x3d78966e	0.060690336
93	0xbd534a04	-0.05158426
94	0x3d454954	0.048165634
95	0xbd196a36	-0.037454806
96	0x3d5d7ad4	0.054072216
97	0x3be15a61	0.006877229
98	0x3d02875a	0.031867363
99	0xbc79cf28	-0.015247144
100	0xbd1b80f4	-0.037964776
101	0xbd8346b3	-0.06409969
102	0x3cf42a74	0.0298054
103	0xbd9bd18e	-0.07608329
104	0x3a5f8800	0.00085270405
105	0xbda34337	-0.079718046
106	0xbd70cc00	-0.0587883
107	0xbd842cd0	-0.0645386
108	0xbc2c2f78	-0.010509364
109	0xbded93dc	-0.116004676
110	0x3b2b9d8d	0.0026186437
111	0xbc387540	-0.011258423
112	0x3cbf2f64	0.023338027
113	0x3cb3f29c	0.021966271
114	0x3c172309	0.009224662
115	0xbc8ed2b9	-0.017434465
116	0xbd1e8b5e	-0.03870713
117	0xbd817a62	-0.06322171
118	0x3ca22490	0.019792825
119	0xbd5c6c2e	-0.053814106
120	0x3c313d12	0.010817783
121	0x3c5bf430	0.013424918
122	0x3d0719f8	0.03298375
123	0xbd027a34	-0.031854823
124	0xbd81f9e3	-0.0634649
125	0xbd87a36f	-0.06622969
126	0xbd6708a8	-0.05640474
127	0xbd336540	-0.04379773
128	0xbdba7eab	-0.09106191
129	0xbdb8d1cf	-0.09024393
130	0x3d42f046	0.047592424
131	0xbd8a71e4	-0.06760004
132	0x3d03486e	0.032051496
133	0x3ca11af9	0.019666182
134	0xbcf80a6a	-0.030278403
135	0xbd58a8a4	-0.052895203
136	0xbd11d3c6	-0.035602354
137	0xbdb394cc	-0.08768615
138	0xbd1c6370	-0.03818077
139	0xbd91ee64	-0.071255475
140	0xbd939d52	-0.07207741
141	0x3d3bca44	0.045847192
142	0x3c3de410	0.011590019
143	0xbcd68a9c	-0.026189141
144	0xbd5e2214	-0.05423172
145	0xbc90d568	-0.017679885
146	0xbdae10de	-0.08499311
147	0xbd684a58	-0.056711525
148	0xbd23712f	-0.039902862
149	0xbdb9ffd2	-0.09081997
150	0x3ccc7d6c	0.02496215
151	0x3c3f05d8	0.011659108
152	0xbd428a90	-0.047495425
153	0xba35fbd5	-0.0006942128
154	0xbd209174	-0.039201215
155	0xbca25e2d	-0.019820297
156	0xbd87e01c	-0.06634542
157	0xbd840269	-0.06445772
158	0xbcbeb12a	-0.023277838
159	0x3c5da882	0.013528945
160	0x3ce2952e	0.027659025
161	0x3cc847de	0.024448331
162	0xbcf9e50b	-0.030504724
163	0xbab67142	-0.0013919252
164	0xbd0c6f72	-0.03428597
165	0x3d2f17ae	0.042747192
166	0xbd9786b6	-0.07398741
167	0x3d0c5da0	0.034268975
168	0xbd788a4c	-0.060678765
169	0xb8b3272d	-8.542682e-05
170	0x3d077cca	0.033077992
171	0xbd66948a	-0.056294
172	0x3d2456ca	0.04012183
173	0xbda2c4bf	-0.079476826
174	0xbd89aa57	-0.06721943
175	0xbcf1311c	-0.029442362
176	0xbd3b85fa	-0.045782067
177	0xbd36f62e	-0.04466837
178	0xbb828f45	-0.003984364
179	0x3d330450	0.043705285
180	0xbd4a17eb	-0.049339216
181	0xbd27d346	-0.04097297
182	0x3a16609b	0.0005736441
183	0x3d5c6f88	0.053817302
184	0xbd3b5f38	-0.045745105
185	0xbd991a6f	-0.07475745
186	0xb99a3969	-0.00029415943
187	0xbd41f65c	-0.047354087
188	0x3a9e6f37	0.0012087588
189	0xbcd50bc4	-0.026006587
190	0xbc72f80b	-0.014829646
191	0xbcb60ae0	-0.022221982
192	0x3c75c3c1	0.015000285
193	0xbd29ec22	-0.04148496
194	0xbc0d86ab	-0.008638064
195	0x3d6a011e	0.05712997
196	0x3a36c48b	0.0006972036
197	0xbc1f55a8	-0.009725012
198	0x3d61e7e2	0.05515278
199	0x3d4ffca4	0.050778046
200	0x3bc9cdf1	0.0061585833
201	0x3c70c0c0	0.014694393
202	0xbd1e1970	-0.038598478
203	0xbc6220d8	-0.013801776
204	0xbd64c9da	-0.055856563
205	0xbd80f2c0	-0.06296301
206	0x3b8d3410	0.004309185
207	0x3c8d91b7	0.017281396
208	0xbd7db740	-0.06194234
209	0x3cbe0621	0.023196282
210	0x3cac611d	0.021042401
211	0x3cdd3bf5	0.027006129
212	0xbd725d3f	-0.059170958
213	0xbd28af00	-0.041182518
214	0x3d7e17d6	0.06203445
215	0xbd2f8e81	-0.04286051
216	0x3ce42e04	0.027853973
217	0x3cb3432a	0.021882612
218	0x3d2d6dec	0.042341158
219	0xbcb6aff8	-0.022300705
220	0xbd3b7f26	-0.045775555
221	0xbcf0f699	-0.029414462
222	0xbd9bb9fe	-0.076038346
223	0x3d06df5c	0.032927856
224	0xbc81c000	-0.015838623
225	0xbc9bb648	-0.019007817
226	0x3c9d6a10	0.019215614
227	0xbd0c4bce	-0.03425198
228	0x3b8056e0	0.0039166063
229	0xbba541b5	-0.0050432333
230	0x3d494402	0.049137123
231	0xbc68afe0	-0.014202088
232	0xbd6d4a12	-0.057931967
233	0x3cf62265	0.030045697
234	0x3cb30356	0.021852177
235	0xbd662c9c	-0.056194887
236	0xbd718cf2	-0.058972307
237	0x3c910a4a	0.017705102
238	0x3c4db463	0.012555215
239	0xbdb518ac	-0.088425964
240	0xbcbaa692	-0.022784505
241	0x3a5723f4	0.00082069566
242	0xbd086742	-0.0333016
243	0x3d69df5e	0.057097785
244	0xbcf6bcbe	-0.030119296
245	0xbc7a4a38	-0.015276484
246	0xbc9ac024	-0.018890448
247	0xbd2a127e	-0.04152154
248	0xbd4009db	-0.0468844
249	0xbd239313	-0.039935183
250	0xbd722032	-0.059112735
251	0xbcf29000	-0.02960968
252	0xbd70d2c7	-0.058794763
253	0x3d505e4a	0.05087117
254	0x3ab5ed80	0.0013879985
255	0x3d3bc956	0.045846306

net.2.bias f4 [64]
0	0xbdeee876	-0.11665432
1	0xbed38982	-0.41315848
2	0xbf4ddbc0	-0.80413437
3	0xbe11e66a	-0.14248052
4	0xbe02453c	-0.12721723
5	0xbf52cbb7	-0.82342094
6	0xbf6465db	-0.8921792
7	0xbf479a62	-0.77969944
8	0xbf283fa5	-0.65722114
9	0xbe02107e	-0.12701604
10	0xbf75e966	-0.9605926
11	0xbf3f6d13	-0.7477581
12	0xbf536faf	-0.8259229
13	0xbe207bc1	-0.15672208
14	0x3f42e88f	0.76136106
15	0xbf5b9846	-0.85779226
16	0xbdb06a1f	-0.08613991
17	0xbf599080	-0.84986115
18	0xbe097805	-0.1342469
19	0xbf4d4d16	-0.8019575
20	0xbf527631	-0.82211596
21	0xbf2a42e1	-0.665083
22	0xbe5639e0	-0.20920515
23	0xbf3fad8d	-0.7487419
24	0xbf2a72ea	-0.66581595
25	0xbf2e9692	-0.681985
26	0xbd24c4e4	-0.040226832
27	0xbf4d1ab7	-0.8011889
28	0xbf224a55	-0.6339467
29	0xbe030131	-0.12793423
30	0x3f2e4750	0.68077564
31	0xbf2f1c6c	-0.68402743
32	0x3f0a1327	0.53935474
33	0xbf232ee5	-0.6374343
34	0xbf3b48ee	-0.73158157
35	0xbf7e1d94	-0.9926388
36	0x3f4d93f9	0.80303913
37	0xbdc365ab	-0.09540876
38	0xbe08dfcf	-0.13366626
39	0xbf03404a	-0.5126997
40	0xbf040f8e	-0.51586235
41	0xbf378eb2	-0.7170211
42	0xbdcf896b	-0.10133632
43	0xbf6d770e	-0.9275979
44	0xbf503531	-0.81331164
45	0xbf4b63ae	-0.79448974
46	0xbdeb3036	-0.11483805
47	0xbf4f6659	-0.81015545
48	0xbf44b611	-0.7684031
49	0xbf38d492	-0.72199357
50	0x3d3d09d7	0.046151962
51	0xbf18d71f	-0.5970325
52	0xbf1a1ac2	-0.6019708
53	0xbdd42051	-0.10357726
54	0xbf5d72ad	-0.86503106
55	0xbf2ea371	-0.6821814
56	0x3eae0239	0.3398607
57	0xbf64bf60	-0.89354515
58	0xbf0fbd4c	-0.5614822
59	0x3ec8475b	0.3911694
60	0xbf49e11e	-0.78859127
61	0xbf2ed8a7	-0.68299335
62	0x3f3abf7c	0.7294843
63	0xbe1ecd02	-0.15507892

net.4.weight f4 [1, 64]
0	0x3ba8344c	0.0051331874
1	0xbd45c133	-0.048279952
2	0xbeb7e47b	-0.35916504
3	0x3cd3d455	0.025858084
4	0x3d849ec6	0.06475596
5	0xbe94cef6	-0.2906415
6	0xbb93d903	-0.004511954
7	0xbe23a1a8	-0.15979636
8	0x3c728f20	0.0148046315
9	0x3cdffd77	0.027342541
10	0xbdbef493	-0.093239926
11	0xbe2dc528	-0.1696974
12	0xbe643697	-0.2228645
13	0x3d3f9354	0.046771362
14	0x3e2a94b2	0.16658285
15	0xbe194d2d	-0.14970846
16	0x3de01053	0.109406136
17	0xbdd11b81	-0.10210324
18	0xbcc14145	-0.023590693
19	0xbe109de8	-0.14122736
20	0xbe445cef	-0.19176076
21	0xbe858761	-0.26079848
22	0x3d2f4b3e	0.042796366
23	0xbe61acf9	-0.2203864
24	0xbe21e188	-0.1580869
25	0xbe241833	-0.16024856
26	0x3d11f6b3	0.03563566
27	0xbe286397	-0.1644424
28	0xbe75180e	-0.23934957
29	0xbc31e149	-0.010856935
30	0x3f0d0c2b	0.5509669
31	0xbead5c27	-0.3385937
32	0x3e2a35e5	0.16622122
33	0xbe8aeb43	-0.27132615
34	0xbe4e4434	-0.20143205
35	0xbce63644	-0.028102048
36	0x3e9e5e82	0.3093148
37	0x3c2d8ad2	0.010592179
38	0x3cc476f1	0.023982497
39	0xbea16d29	-0.31528595
40	0xbeaf2f03	-0.34215555
41	0xbe22957b	-0.15877335
42	0x3d9534d4	0.07285467
43	0xbead498b	-0.3384517
44	0xbe843a03	-0.2582551
45	0xbe93c4cc	-0.28861082
46	0x3c69a3fb	0.014260287
47	0xbe9ac7dd	-0.3023061
48	0xbdb8404b	-0.08996638
49	0x3d1a698d	0.037698317
50	0x3f5e4a8b	0.86832494
51	0xbe5e05ba	-0.21681872
52	0xbd202fd2	-0.039108105
53	0x3c219295	0.009861608
54	0xbe714f85	-0.2356549
55	0x3c53d32e	0.012928767
56	0x3fcd2564	1.6027036
57	0xbeb3f496	-0.35147542
58	0xbe6be4d7	-0.23036514
59	0x3fd5f21c	1.6714511
60	0xbe7f160a	-0.24910751
61	0xbe946d36	-0.2898957
62	0x3e1606b1	0.1465099
63	0xbc9c74d2	-0.019098673
