occasions_model.pth (torch, 856344 bytes, 5 tensors)

net.0.weight f4 [256, 768]
-0.0048030554 -0.053203043 -0.009422022 -0.027581666 0.008280082 -0.05887405 -0.06489131 0.027850904
-0.0318343 0.04231044 -0.008319109 0.004207792 0.04718932 -0.047528375 0.030050684 0.049062558
-0.026781496 0.07405447 -0.054142516 -0.07265383 -0.003923095 -0.0035418267 0.048614677 -0.0040870495
-0.035538033 -0.020262213 -0.06367027 0.017348923 -0.011859085 0.010160123 -0.031711884 -0.005631171
-0.019944033 -0.011739637 0.08295345 0.00797456 -0.0035294802 -0.012518952 -0.025185432 -0.06041017
0.002353596 0.026338765 -0.09165313 0.02427113 -0.070105836 -0.032154143 -0.030171528 -0.033169053
-0.066512644 -0.03363577 0.040377356 -0.08538723 0.0016365565 -0.021467036 -0.04819599 -0.020540345
0.043285526 0.0022797568 -0.016179837 0.0517717 0.0057955147 -0.08079433 -0.044221062 -0.044386756
-0.03214988 0.0104183415 -0.06267544 -0.0887182 0.057828844 -0.010585696 -0.030208267 -0.015472737
0.017411511 -0.014220299 0.06868741 0.04723553 -0.012327407 0.0010297046 0.019200569 0.060483806
0.09267029 0.017535904 0.07206225 -0.02027774 0.0007827861 -0.02453942 0.03431667 -0.012127058
0.03674093 -0.01904863 0.003503035 0.10795043 -0.020151358 0.01839086 -0.006857507 -0.06344299
0.000110584704 0.047401983 -0.044490196 0.0025223857 -0.08442328 -0.027584169 -0.028235402 -0.038613398
0.025270564 0.048814964 0.04665745 -0.0013728552 -0.027698936 0.021586576 0.03624299 0.033132426
-0.005750413 0.02473962 0.013893969 -0.047661077 -0.09309435 0.0008828327 -0.04830848 0.030332891
0.06261004 0.045359224 -0.026148126 -2.565053e-05 0.046469796 0.05819003 -0.04531648 0.034213785
-0.019504396 0.038024202 -0.04172766 -0.012683691 -0.06933632 -0.003394477 -0.03950908 -0.005065113
0.08259653 0.046893273 -0.010297862 -0.013485513 0.0015606261 0.03234428 -0.0063479394 -0.01107168
0.052000083 -0.01162466 -0.020965647 0.03750798 0.020873064 0.012222339 -0.07410142 -0.029844517
-0.028248152 0.059906557 -0.05399586 0.023935072 0.026428005 -0.057090003 0.009285356 0.010734112
0.06114712 -0.0725736 -0.057223823 0.024248706 -0.032501608 0.019788358 0.001186887 -0.0019180037
-0.0026467086 0.0153443115 -0.03504126 0.01794055 0.05304769 -0.032156914 -0.041125756 0.078051426
0.00022186339 -0.024483217 0.00037338043 -0.032104466 0.0033754457 -0.002103274 0.043881357 0.0065534087
0.0015179501 -0.041232154 0.04745958 0.011328998 0.037875697 0.0022188285 -0.039952196 -0.030331349
-0.011496605 -0.055151723 -0.034836464 -0.011106436 -0.04405612 0.00961165 -0.02120717 0.035267144
-0.025401363 0.02259511 -0.09515797 -0.000991378 -0.040972956 0.08189308 -0.018241106 0.008266062
0.044205774 -0.049341917 -0.02265698 -0.06567521 -0.060615417 -0.035600778 -0.030454367 0.0023520775
0.0067341966 0.03336565 -0.047144156 -0.06168477 -0.058745265 0.04803802 0.006405124 -0.023217456
-0.03418801 0.041842245 0.009741719 -0.037237264 0.017102608 0.058332976 -0.030595226 -0.014299823
0.06596495 -0.09093983 -0.024746576 -0.0034011635 -0.022163438 0.08339673 0.02880334 -0.019702846
-0.06332277 -0.06896099 -0.06121878 0.034700423 -0.04662944 -0.04324155 -0.029109146 -0.023207283
0.012469364 -0.014409163 0.0003368654 -0.006690713 0.029022304 0.025923379 0.054096226 -0.028442118
00000000: f362 9dbb 6feb 59bd d35e 1abc f2f2 e1bc
00000010: 2ea9 073c ea25 71bd bce5 84bd 9427 e43c
00000020: af64 02bd b64d 2d3d df4c 08bc 85e1 893b
00000030: 9749 413d 1dad 42bd da2c f63c d2f5 483d
00000040: de64 dbbc dfa9 973d 8bc4 5dbd 88cb 94bd
00000050: 4e8d 80bb fe1d 68bb 2f20 473d a8ec 85bb
00000060: 5490 11bd f1fc a5bc 8f65 82bd 541f 8e3c
00000070: 9c4c 42bc a576 263c 52e4 01bd b085 b8bb
00000080: ab61 a3bc 9b57 40bc 80e3 a93d bba7 023c
00000090: da4e 67bb 4a1c 4dbc ae51 cebc a870 77bd
000000a0: ca3e 1a3b 65c4 d73c a3b4 bbbd 40d4 c63c
000000b0: a693 8fbd 10b4 03bd 482a f7bc 46dc 07bd
000000c0: c837 88bd a9c5 09bd ba62 253d 80df aebd
000000d0: b981 d63a a3db afbc 2969 45bd 3a44 a8bc
000000e0: 2a4c 313d f967 153b 948b 84bc 900e 543d
000000f0: 4de8 bd3b 7f77 a5bd 2521 35bd e3ce 35bd
00000100: 98af 03bd b1b1 2a3c fb5b 80bd e3b1 b5bd
00000110: f0dd 6c3d a16f 2dbc 5477 f7bc 5d81 7dbc
00000120: 96a2 8e3c 42fc 68bc fcab 8c3d 0b7a 413d
00000130: e4f8 49bc 27f7 863a 834a 9d3c debd 773d
00000140: ecc9 bd3d 75a7 8f3c 5f95 933d 811d a6bc
00000150: e333 4d3a e506 c9bc a38f 0c3d 91b0 46bc
00000160: a87d 163d df0b 9cbc 2d93 653b 1d15 dd3d
00000170: 7614 a5bc 6ea8 963c f0b4 e0bb 66ee 81bd
00000180: b6e9 e738 9528 423d 5a3b 36bd 9c4e 253b
00000190: 1de6 acbd 32f8 e1bc ee4d e7bc 1529 1ebd
000001a0: 3704 cf3c 33f2 473d e21b 3f3d 60f1 b3ba
000001b0: e1e8 e2bc 55d6 b03c 8873 143d deb5 073d
000001c0: f66d bcbb beaa ca3c 88a3 633c 4338 43bd
000001d0: 40a8 bebd e66d 673a 1ddf 45bd af7c f83c
000001e0: b139 803d 98ca 393d 9834 d6bc 182c d7b7
000001f0: 1d57 3e3d ab58 6e3d c69d 39bd c123 0c3d
00000200: afc7 9fbc 44bf 1b3d 9fea 2abd 42cf 4fbc
00000210: 3300 8ebd e075 5ebb 46d4 21bd 3ff9 a5bb
00000220: 5f28 a93d 2913 403d 5db8 28bc 57f2 5cbc
00000230: ec8d cc3a 707b 043d 6002 d0bb fe65 35bc
00000240: 0afe 543d 5c75 3ebc 26c0 abbc f8a1 193d
00000250: fdfd aa3c 3540 483c 7cc2 97bd 7d7c f4bc
00000260: ab68 e7bc 9460 753d c32a 5dbd 7c13 c43c
00000270: 8b7f d83c 35d7 69bd 9b21 183c 21de 2f3c
00000280: 6775 7a3d 78a1 94bd 8763 6abd 39a5 c63c
00000290: 6820 05bd 321b a23c 5291 9b3a 8665 fbba
000002a0: 6774 2dbb b566 7b3c 6d87 0fbd 0ff8 923c
000002b0: 8948 593d f8b6 03bd 7b73 28bd 6dd9 9f3d
000002c0: 00a4 6839 0791 c8bc 46c2 c339 f97f 03bd
000002d0: 9536 5d3b 15d7 09bb f0bc 333d fabd d63b
000002e0: f4f5 c63a 0ce3 28bd fa64 423d 439d 393c
000002f0: 8c23 1b3d c469 113b eaa4 23bd 7379 f8bc
00000300: 425c 3cbc c6e6 61bd aeb0 0ebd c5f7 35bc
00000310: 3174 34bd 2f7a 1d3c a9ba adbc 4874 103d
00000320: 8516 d0bc 6119 b93c 2fe2 c2bd 20f1 81ba
00000330: 42d3 27bd 8fb7 a73d 5f6e 95bc 606e 073c
00000340: 1d11 353d c01a 4abd 229b b9bc b980 86bd
00000350: df47 78bd 1fd2 11bd 707b f9bc 5025 1a3b
00000360: 89aa dc3b 6baa 083d 3b1a 41bd 2ba9 7cbd
00000370: e09e 70bd 84c3 443d 13e2 d13b 8932 bebc
00000380: ba08 0cbd c662 2b3d bb9b 1f3c 1a86 18bd
00000390: c51a 8c3c 8fee 6e3d d7a2 fabc ce49 6abc
000003a0: a218 873d a93e babd 55b9 cabc 0ee6 5ebb
000003b0: 1990 b5bc e8cb aa3d fbf4 eb3c dd67 a1bc
000003c0: 5eaf 81bd 6b3b 8dbd 8bc0 7abd 0822 0e3d
000003d0: 83fe 3ebd 0d1e 31bd 4e76 eebc 331d bebc
000003e0: 4e4c 4c3c 6914 6cbc 4f9d b039 c53d dbbb
000003f0: 2fc0 ed3c 445d d43c 0194 5d3d 72ff e8bc

net.0.bias f4 [256]
-0.05728579 -0.025836369 -0.007873572 -0.04007635 -0.004933309 -0.087185346 -0.10768532 -0.20817004
0.019374574 -0.029090019 -0.12004407 0.014929302 -0.0476541 -0.0043544965 -0.050085697 -0.010532035
0.015007586 -0.017163934 -0.036551595 -0.04729699 -0.08714808 -0.0043968624 -0.044155557 -0.0417195
0.0010687467 -0.01312183 -0.030150073 -0.086351454 -0.06265857 -0.006909223 -0.05317734 -0.12612267
-0.037511803 -0.07294956 -0.042212896 -0.06287377 -0.1035432 0.022136394 -0.035014246 -0.059271898
-0.031072782 -0.02581931 -0.054029103 -0.046223726 -0.06291438 -0.06082232 -0.03815858 -0.06867606
-0.016666723 -0.090221435 -0.029790323 -0.044723295 -0.043773606 -0.16553038 -0.009163376 -0.08860778
-0.07898262 -0.10057581 -0.03527775 -0.05557276 -0.13754378 -0.021439914 -0.08342711 0.010144154
-0.041378655 -0.025059767 0.059923854 -0.07103289 -0.03745879 -0.03904073 -0.046125133 -0.08174693
-0.016809383 -0.034119558 0.023493446 -0.10239184 -0.12885359 -0.033120845 -0.0823443 -0.028979534
-0.014063098 -0.022441432 -0.21501796 0.13549118 -0.07706907 -0.049881805 0.0030703675 -0.078024805
-0.020262413 -0.026095849 -0.027789794 -0.03914596 -0.13530119 -0.031141987 -0.0070767105 -0.068154864
-0.069866195 -0.04125805 -0.055586062 0.015588004 -0.07706866 -0.036071528 -0.07888349 -0.038046233
-0.066080645 -0.037408724 -0.002752072 -0.06143185 -0.092060976 0.010669037 0.00877013 0.0036009087
-0.03068899 -0.07122569 -0.08208423 -0.12295047 0.013161094 -0.03687591 -0.022249194 0.036349818
0.010509875 -0.007866423 -0.10437678 -0.057218324 -0.07001143 -0.07573365 -0.05778827 -0.001046946
-0.035805386 -0.10268985 -0.08742006 -0.019762447 -0.050098956 0.011560547 -0.034303773 -0.0014236931
-0.04101495 -0.06871835 -0.023291102 -0.07006961 -0.031443093 -0.06889875 -0.06872891 -0.013384486
-0.033005767 -0.0469816 0.02453396 -0.01661115 -0.015649023 -0.11521624 0.008563647 -0.09390756
-0.048108395 -0.048029758 -0.026782084 -0.09810098 -0.03740687 -0.014888912 -0.092833236 -0.08364471
-0.08214552 -0.04176185 -0.0535842 -0.09652832 -0.108769804 -0.0397393 -0.07738203 -0.0165758
-0.039358728 0.012104683 -0.0034597898 -0.017060846 0.018237405 -0.060774777 0.0112665435 0.024238352
-0.048583567 -0.025719527 -0.07281693 -0.07435124 -0.020352086 0.0055598244 -0.15679528 0.021775937
-0.07725475 0.011588509 -0.034717225 0.0095691085 -0.019244626 0.003149216 -0.055841297 -0.01744395
-0.0786507 -0.016548388 -0.038277496 -0.021705925 -0.019515894 -0.064935826 -0.09598075 -0.038054142
0.010003774 -0.06284117 -0.13348101 -0.06373099 -0.047266286 -0.07686443 -0.07189736 -0.088379286
0.012794156 -0.023853831 -0.030622128 -0.11693784 -0.02656809 -0.09482698 -0.037329443 -0.023571413
-0.035436682 -0.09937525 -0.059021227 -0.010265993 -0.047750987 -0.08807375 -0.055291712 -0.067466035
-0.01919051 -0.10742307 -0.08462393 -0.04195397 -0.029690942 -0.06490084 -0.014803443 -0.087447524
-0.062522195 -0.012676098 -0.10031918 -0.10141177 -0.013840309 -0.049396615 -0.09295735 -0.010869251
-0.13121742 -0.045893043 -0.026548473 -0.13578701 -0.07445319 -0.044840377 -0.031080512 -0.13758323
-0.03316772 -0.026450196 -0.06401979 -0.081494905 -0.04970082 -0.028748356 -0.06920053 -0.04289093
00000000: 81a4 6abd cba6 d3bc 2800 01bc 1927 24bd
00000010: 98a7 a1bb 3b8e b2bd 1f8a dcbd 872a 55be
00000020: 6db7 9e3c 314e eebc aad9 f5bd 089a 743c
00000030: f230 43bd 2ab0 8ebb a926 4dbd 8e8e 2cbc
00000040: 61e2 753c 619b 8cbc 20b7 15bd 7dba 41bd
00000050: b17a b2bd 8e13 90bb 75dc 34bd 11e2 2abd
00000060: 3015 8c3a f2fc 56bc 49fd f6bc 08d9 b0bd
00000070: 2353 80bd c366 e2bb 7cd0 59bd 4d26 01be
00000080: faa5 19bd 9466 95bd 6ee7 2cbd f7c3 80bd
00000090: 750e d4bd 6257 b53c 196b 0fbd 17c7 72bd
000000a0: 598c febc 0583 d3bc 9f4d 5dbd 1755 3dbd
000000b0: 41d9 80bd d320 79bd 2c4c 1cbd 09a6 8cbd
000000c0: a788 88bc 04c6 b8bd d60a f4bc c62f 37bd
000000d0: f44b 33bd cc80 29be fc21 16bc ff77 b5bd
000000e0: a4c1 a1bd b1fa cdbd 677f 10bd 43a0 63bd
000000f0: 47d8 0cbe c2a2 afbc d5db aabd aa33 263c
00000100: aa7c 29bd 244a cdbc b772 753d b179 91bd
00000110: 636e 19bd 2ce9 1fbd b5ed 3cbd ef6a a7bd
00000120: d5b3 89bc f3c0 0bbd 5475 c03c d0b2 d1bd
00000130: 32f2 03be b9a9 07bd 21a4 a8bd 7d66 edbc
00000140: e868 66bc 18d7 b7bc ab2d 5cbe 33be 0a3e
00000150: 63d6 9dbd dd50 4cbd 3838 493b 78cb 9fbd
00000160: 5cfd a5bc f6c6 d5bc 6ca7 e3bc 8457 20bd
00000170: 658c 0abe 7b1d ffbc c0e3 e7bb c794 8bbd
00000180: 0216 8fbd 33fe 28bd 36ae 63bd d464 7f3c
00000190: 2cd6 9dbd bdbf 13bd ab8d a1bd 5ed6 1bbd
000001a0: 4a55 87bd e439 19bd 1b5c 34bb f79f 7bbd
000001b0: 778a bcbd 2fcd 2e3c 97b0 0f3c 39fd 6b3b
000001c0: 7a67 fbbc c6de 91bd c71b a8bd 75cd fbbd
000001d0: a1a1 573c 320b 17bd f143 b6bc 8ce3 143d
000001e0: 9c31 2c3c 2be2 00bc 7ec3 d5bd c35d 6abd
000001f0: 2762 8fbd 3e1a 9bbd 65b3 6cbd ae39 89ba
00000200: aba8 12bd 0e4f d2bd 4a09 b3bd dbe4 a1bc
00000210: 9034 4dbd 7368 3d3c 1d82 0cbd 379b baba
00000220: 4bff 27bd 35bc 8cbd fbcc bebc a880 8fbd
00000230: 79ca 00bd ca1a 8dbd bec1 8cbd 9a4a 5bbc
00000240: 0e31 07bd c76f 40bd 71fb c83c 1b14 88bc
00000250: 6132 80bc 7ef6 ebbd 8a4e 0c3c 9b52 c0bd
00000260: 4f0d 45bd daba 44bd 1a66 dbbc 2be9 c8bd
00000270: f237 19bd a0f0 73bc 5a1f bebd eb4d abbd
00000280: e93b a8bd 790e 2bbd 1b7b 5bbd a4b0 c5bd
00000290: b4c2 debd adc5 22bd 787a 9ebd f9c9 87bc
000002a0: 9e36 21bd b852 463c a4bd 62bb 30c3 8bbc
000002b0: 9c66 953c f9ee 78bd 4f97 383c 828f c63c
000002c0: 90ff 46bd c2b1 d2bc 0b21 95bd 7745 98bd
000002d0: 6bb9 a6bc 302f b63b f18e 20be 7363 b23c
000002e0: bd37 9ebd bbdd 3d3c a633 0ebd c0c7 1c3c
000002f0: e8a6 9dbc 1463 4e3b d8b9 64bd 9de6 8ebc
00000300: 9e13 a1bd 7c90 87bc ddc8 1cbd a0d0 b1bc
00000310: ccdf 9fbc 13fd 84bd 8e91 c4bd a9de 1bbd
00000320: dfe6 233c dfb2 80bd 3faf 08be 6585 82bd
00000330: 4b9a 41bd 196b 9dbd ec3e 93bd 3300 b5bd
00000340: 949e 513c 1c69 c3bc 42db fabc 1b7d efbd
00000350: 53a5 d9bc a634 c2bd c2e6 18bd d618 c1bc
00000360: 0e26 11bd 4085 cbbd 3ec0 71bd b232 28bc
00000370: 8a96 43bd 0360 b4bd 9079 62bd a22b 8abd
00000380: 6b35 9dbc a000 dcbd 504f adbd edd7 2bbd
00000390: 6b3a f3bc bbea 84bd 248a 72bc b017 b3bd
000003a0: a30b 80bd 69af 4fbc 2474 cdbd f9b0 cfbd
000003b0: 77c2 62bc 1b54 4abd 6c60 bebd f114 32bc
000003c0: dc5d 06be 58fa 3bbd 2f7c d9bc c00b 0bbe
000003d0: ea7a 98bd 8baa 37bd 8f9c febc 9ee2 0cbe
000003e0: e0da 07bd 15ae d8bc cf1c 83bd cde6 a6bd
000003f0: 1693 4bbd ac81 ebbc 02b9 8dbd 66ae 2fbd

net.2.weight f4 [64, 256]
-0.031685203 -0.021680122 -0.030683422 0.07888603 -0.024133615 -0.017301375 0.0118555045 0.018715642
-0.03813593 0.0063863713 -0.23304234 -0.054447576 -0.14366516 0.055186905 -0.090147585 0.058169134
0.18668647 -0.1445073 -0.0035502007 0.045123957 -0.16399205 -0.04756099 -0.020028487 -0.09157772
-0.0064375624 -0.058356144 -0.041846476 -0.08841661 -0.072411925 0.0106721 -0.24933255 -0.08632839
-0.08637169 0.10054206 -0.04744631 0.04654001 0.17863075 -0.025067985 -0.024751619 -0.09572804
-0.0507638 0.036996543 -0.0056720017 -0.13398899 -0.04551473 0.04930002 0.06243269 -0.028753534
0.03745565 -0.035542127 -0.04741312 0.06654759 -0.0058853924 0.12320852 0.030303773 -0.1298314
-0.11560291 0.004363903 -0.014188696 0.09440182 -0.07449835 -0.034569032 0.0053859716 0.020815477
0.13528784 0.112889394 0.01743101 -0.16151825 -0.07230539 0.03077924 0.06730119 0.037877843
-0.035350528 -0.058746427 -0.022131622 -0.08153812 -0.031296343 -0.18492253 -0.035402212 0.019497767
0.030851439 -0.010978907 -0.13083433 -0.14953314 0.09520544 0.03545493 -0.061020117 0.009502386
-0.07605431 0.04708451 0.031579547 0.021377534 0.016178766 -0.03146627 -0.033533804 0.045529142
-0.28264397 0.0072556883 -0.04345881 0.16153215 -0.03761804 -0.062379252 0.07836221 0.025566489
-0.025001531 0.029777206 -0.08850946 -0.034401126 -0.014653029 -0.010914572 0.0515145 -0.031187512
-0.060583636 -0.081528924 0.09285234 -0.118673876 0.082833946 -0.056672804 0.007970683 -0.0107533485
-0.0080282 -0.032686975 -0.03852155 0.04760639 -0.02159621 0.093042195 -0.0802253 -0.046617307
0.052943252 -0.09257503 -0.015982118 -0.13576384 -0.054311186 -0.004138373 0.041362066 -0.055782508
0.027938984 -0.051244427 0.023714893 -0.14392908 0.0386609 -0.21828097 -0.11069419 -0.13604109
-0.044157863 -0.1812223 -0.0063097477 -0.0014888421 -0.17947873 0.04556395 -0.026705477 0.015211367
-0.10067981 -0.08665175 0.017671816 0.021417314 -0.05162614 0.013886376 0.0027585726 0.023488438
-0.0031562597 -0.114101894 -0.21085759 0.042516757 0.053783044 0.055952594 -0.008030223 0.011843562
-0.18951221 -0.042140402 0.0704612 0.1870996 -0.00392171 0.0077602067 0.027579643 -0.046457186
0.03792251 0.16635449 -0.07135229 0.010713068 0.057832614 0.057717383 -0.04832214 0.03793031
0.107666925 -0.017898306 -0.17336413 -0.015842564 -0.007910913 0.039386816 0.045809887 0.008679196
0.057943236 -0.029595166 -0.05858236 0.04582511 0.076057695 -0.0596929 -0.17169523 0.045443743
-0.0319271 -0.076764606 0.026237436 -0.20811675 -0.035209388 -0.08882358 0.17428233 0.019886477
-0.010500304 0.00049200223 -0.047255836 0.052037627 -0.00032754242 -0.024731455 0.05329977 0.061114103
-0.04016244 -0.059386123 -0.10553238 -0.05795499 0.050520133 -0.12821515 0.01473184 -0.056414105
-0.0588087 0.024336062 0.073302336 0.12760425 -0.08067304 -0.034311987 -0.009534605 0.034930907
-0.08028348 -0.18331777 -0.04819707 0.08735793 0.0075823353 -0.13349366 -9.672589e-05 0.0014170557
-0.10706431 -0.021912135 0.015772885 -0.052411053 -0.012176554 -0.04756296 0.036702875 -0.07731649
-0.057893533 0.008537987 0.03515063 0.09474216 -0.026878648 0.1017796 -0.10404271 0.02164679
00000000: 58c8 01bd 839a b1bc cd5b fbbc 008f a13d
00000010: dcb3 c5bc 9dbb 8dbc 973d 423c 8c51 993c
00000020: 6c34 1cbd c444 d13b a7a2 6ebe 6c04 5fbd
00000030: f61c 13be aa0b 623d 4c9f b8bd c242 6e3d
00000040: bd2a 3f3e b9f9 13be 7caa 68bb e6d3 383d
00000050: 88ed 27be 50cf 42bd c812 a4bc 1a8d bbbd
00000060: 30f2 d2bb da06 6fbd 3667 2bbd c513 b5bd
00000070: b44c 94bd 08da 2e3c 0851 7fbe f0cc b0bd
00000080: a4e3 b0bd ffe8 cd3d 1057 42bd bda0 3e3d
00000090: fbea 363e 605b cdbc e8c3 cabc 100d c4bd
000000a0: b4ed 4fbd b089 173d 33dc b9bb 6934 09be
000000b0: a76d 3abd d1ee 493d 6cb9 7f3d 888c ebbc
000000c0: 186b 193d 9f94 11bd 4234 42bd 1a4a 883d
000000d0: 40da c0bb c054 fc3d 9e3f f83c 86f2 04be
000000e0: 38c1 ecbd 12ff 8e3b b477 68bc be55 c13d
000000f0: 9792 98bd 4298 0dbd ce7c b03b 3885 aa3c
00000100: e588 0a3e 8e32 e73d 7acb 8e3c 0a65 25be
00000110: d914 94bd bf24 fc3c 35d5 893d cc25 1b3d
00000120: b7cb 10bd 18a0 70bd 604d b5bc 75fd a6bd
00000130: 9830 00bd 555c 3dbe e901 11bd c8b9 9f3c
00000140: 28bc fc3c e0e0 33bc 6ff9 05be 371f 19be
00000150: 12fb c23d 3039 113d 3bf0 79bd e5af 1b3c
00000160: 5dc2 9bbd b0db 403d 8e59 013d f01f af3c
00000170: 5589 843c c7e2 00bd be5a 09bd c47c 3a3d
00000180: b6b6 90be 20c1 ed3b dd01 32bd af68 253e
00000190: 6015 1abd 6381 7fbd 5e7c a03d d070 d13c
000001a0: 03d0 ccbc 54ef f33c 7344 b5bd 32e8 0cbd
000001b0: 4213 70bc 08d3 32bc de00 533d f47c ffbc
000001c0: 8c26 78bd a3f8 a6bd 5e29 be3d 4a0b f3bd
000001d0: d8a4 a93d be21 68bd 7897 023c d02e 30bc
000001e0: b688 03bc c7e2 05bd c6c8 1dbd ebfe 423d
000001f0: 89ea b0bc e88c be3d 294d a4bd caf1 3ebd
00000200: 06db 583d fa97 bdbd eeec 82bc ad05 0bbe
00000210: 6875 5ebd 309b 87bb 456b 293d 337c 64bd
00000220: 4ce0 e43c ade5 51bd bc45 c23c 2562 13be
00000230: e45a 1e3d 0c85 5fbe a3b3 e2bd 5b4e 0bbe
00000240: e0de 34bd 5792 39be 00c2 cebb 4025 c3ba
00000250: 46c9 37be 44a1 3a3d 72c5 dabc 1939 793c
00000260: 3731 cebd 7976 b1bd 7cc4 903c 5d73 af3c
00000270: ee75 53bd af83 633c 2bc9 343b d36a c03c
00000280: 40d9 4ebb 41ae e9bd 0deb 57be 0d26 2e3d
00000290: 9c4b 5c3d 8c2e 653d 3291 03bc 800b 423c
000002a0: 7d0f 42be 6a9b 2cbd f64d 903d 0a97 3f3e
000002b0: b081 80bb 5549 fe3b b4ee e13c e449 3ebd
000002c0: a254 1b3d d558 2a3e 2621 92bd dd85 2f3c
000002d0: e4e1 6c3d 1069 6c3d 70ed 45bd d05c 1b3d
000002e0: 7a80 dc3d 789f 92bc 5e86 31be 44c8 81bc
000002f0: c69c 01bc 1254 213d 26a3 3b3d 3033 0e3c
00000300: e355 6d3d 9071 f2bc 0ff4 6fbd 1cb3 3b3d
00000310: 23c4 9b3d 8b80 74bd e0d0 2fbe 3823 3a3d
00000320: fec5 02bd c336 9dbd e4ef d63c 8f1c 55be
00000330: b837 10bd 23e9 b5bd 1177 323e f7e8 a23c
00000340: 7809 2cbc b6f9 003a 568f 41bd 6825 553d
00000350: 00ba abb9 9f99 cabc dc50 5a3d c852 7a3d
00000360: 5f81 24bd dd3e 73bd 5c21 d8bd 3662 6dbd
00000370: 33ee 4e3d d54a 03be d15d 713c 7a12 67bd
00000380: 64e1 70bd 6c5c c73c 891f 963d b0aa 023e
00000390: e837 a5bd ba8a 0cbd 0837 1cbc b613 0f3d
000003a0: aa6b a4bd a7b7 3bbe 4a6a 45bd b7e8 b23d
000003b0: 3d75 f83b 90b2 08be 51d9 cab8 80bc b93a
000003c0: 8844 dbbd 1481 b3bc 2336 813c f9ac 56bd
000003d0: 2b80 47bc 61d1 42bd c155 163d 1c58 9ebd
000003e0: c521 6dbd eae2 0b3c 1bfa 0f3d 2d08 c23d
000003f0: 9c30 dcbc d371 d03d 5814 d5bd 9c54 b13c

net.2.bias f4 [64]
-0.093544215 0.073578425 0.37279585 -0.6640602 -0.63238794 -0.115482986 0.4062318 -0.7505716
-0.6435081 0.4368416 0.6031525 -0.2666808 0.5551899 -0.5972216 -0.6317838 -0.7000792
-0.59520835 -0.12864406 -0.60366976 0.5765245 -0.6232054 -0.5778386 -0.6238041 0.16466631
-0.14620967 -0.09615213 0.08994178 0.42919922 0.51994 -0.643632 0.41047344 -0.6641791
-0.75782233 0.24689701 -0.100880004 -0.09238635 -0.10694217 -0.079593144 -0.6887627 -0.6693312
-0.573925 -0.62011117 0.50841063 -0.5791126 -0.1610301 -0.6051805 0.5741815 -0.119318694
-0.58161443 0.3998427 -0.6809879 -0.6172623 -0.6465723 -0.69863254 -0.6399694 0.048416924
-0.045867585 -0.08597766 0.48250797 0.035426676 -0.30877677 -0.7495574 -0.11327795 -0.151617
00000000: 1c94 bfbd 49b0 963d 19df be3e d9ff 29bf
00000010: 2de4 21bf 5882 ecbd 9dfd cf3e 7625 40bf
00000020: f2bc 24bf b4a9 df3e 3468 1a3f 638a 88be
00000030: ed20 0e3f 84e3 18bf 95bc 21bf 6438 33bf
00000040: 935f 18bf 45bb 03be 1a8a 1abf 1c97 133f
00000050: 648a 1fbf 3bed 13bf a0b1 1fbf 499e 283e
00000060: fdb7 15be 68eb c4bd 6533 b83d 00c0 db3e
00000070: ca1a 053f 11c5 24bf 9329 d23e a407 2abf
00000080: a500 42bf 92d2 7c3e 2d9a cebd 0e35 bdbd
00000090: 7f04 dbbd bb01 a3bd c152 30bf 4a59 2bbf
000000a0: c0ec 12bf 9bbf 1ebf 3327 023f b940 14bf
000000b0: 13e5 24be 1ced 1abf 8ffd 123f 5c5d f4bd
000000c0: afe4 14bf 2fb8 cc3e 3955 2ebf e704 1ebf
000000d0: c385 25bf 95d9 32bf 09d5 23bf d350 463d
000000e0: a6df 3bbd 0e15 b0bd 490b f73e 901b 113d
000000f0: fd17 9ebe fee2 3fbf 45fe e7bd 7d41 1bbe

net.4.weight f4 [1, 64]
0.03805722 0.24716601 0.36549062 -0.22661352 -0.10205669 -0.018752461 0.4254178 -0.10248564
-0.16286929 0.27024257 0.28821385 -0.004581584 0.5093516 -0.23433018 -0.16356969 -0.092296645
-0.16742706 0.05353169 -0.16330382 0.4887702 -0.21541655 -0.17480247 -0.10649033 0.38271186
0.034568634 -0.0021684116 0.40713292 0.5238508 0.3906671 -0.19485259 0.35730416 -0.25195786
-0.034091387 0.19724011 0.023037657 0.03529742 0.012768571 -0.021673476 -0.22895955 -0.070584506
-0.19766216 -0.21300706 0.46412662 -0.14862709 -0.004174119 -0.1576057 0.33552563 -0.012174348
-0.20668036 0.30013165 -0.019656356 -0.1266115 -0.22487985 -0.11205827 0.023901634 0.24942939
-0.018333608 0.026556771 0.47210678 0.33295548 -0.0016782517 -0.005459562 0.0902233 0.019484743
00000000: e3e1 1b3d 1619 7d3e 9621 bb3e 600d 68be
00000010: 1903 d1bd c39e 99bc 5dd0 d93e fee3 d1bd
00000020: 35c7 26be 3c5d 8a3e c490 933e 1d21 96bb
00000030: de64 023f 40f4 6fbe d07e 27be 0606 bdbd
00000040: 0072 2bbe 0c44 5b3d 1e39 27be 1640 fa3e
00000050: 2896 5cbe 6bff 32be 9a17 dabd cff2 c33e
00000060: d797 0d3d e91b 0ebb ba73 d03e 161b 063f
00000070: 8505 c83e 7087 47be 92f0 b63e 9f00 81be
00000080: 69a3 0bbd 50f9 493e 78b9 bc3c 0794 103d
00000090: 4533 513c 938c b1bc 5f74 6abe 9c8e 90bd
000000a0: f367 4abe 861e 5abe 01a2 ed3e b331 18be
000000b0: 0cc7 88bb 6363 21be 04ca ab3e eb76 47bc
000000c0: 04a4 53be dbaa 993e 5e06 a1bc 72a6 01be
000000d0: e746 66be ce7e e5bd 5ccd c33c 6b6a 7f3e
000000e0: 5d30 96bc 968d d93c fbb7 f13e 2479 aa3e
000000f0: c8f8 dbba 20e6 b2bb fec6 b83d 789e 9f3c
