Backend/user_relationship_model.pth (torch, 860584 bytes, 5 tensors)

net.0.weight f4 [256, 772]
0	0x3c9a0bca	0.01880445
1	0x3dd1b8e0	0.1024034
2	0x3e73ec8a	0.23820701
3	0xbd89bb44	-0.06725171
4	0x3da0a4a2	0.07843901
5	0xbe8c3792	-0.27386147
6	0x3d2f4935	0.042794425
7	0x3e9d4d13	0.30722865
8	0xbe3ae021	-0.18249561
9	0x3e1de1f1	0.15418221
10	0xbd80d123	-0.0628989
11	0xbe92e616	-0.28691167
12	0x3d78b29c	0.06071721
13	0x3ee094e1	0.43863586
14	0x3d070cce	0.032971196
15	0x3e11fe4c	0.14257163
16	0xbcd1d27f	-0.025613068
17	0xbe29400b	-0.16528337
18	0xbe6e6144	-0.23279291
19	0xbdaa66f4	-0.08320418
20	0x3e45c9cb	0.19315259
21	0xbd9b6650	-0.07587874
22	0x3eead278	0.458637
23	0x3b5a9098	0.0033350345
24	0xbe591c5a	-0.21202222
25	0x3eb20a4b	0.34773478
26	0xbe24bd92	-0.1608794
27	0x3d14eb5a	0.03635726
28	0xbe0d9913	-0.13827924
29	0xbe367ada	-0.17820302
30	0xbe3ffb95	-0.18748315
31	0xbef30897	-0.4746749
32	0xbea45428	-0.32095456
33	0xbdb20034	-0.08691445
34	0x3e4e222f	0.20130228
35	0xbdd41e70	-0.10357368
36	0x3e089c74	0.13340932
37	0x3e3d021a	0.18457833
38	0xbdf84289	-0.121220656
39	0x3d313d78	0.04327151
40	0x3ea1aa9f	0.31575486
41	0x3cbb3a21	0.022854866
42	0xbe43e71b	-0.19131128
43	0x3c1cec39	0.009577804
44	0x3e1e7ca2	0.15477231
45	0x3dc817ed	0.097701885
46	0xbe3d271f	-0.18471955
47	0x3d88cb3f	0.06679391
48	0xbdf7e563	-0.12104299
49	0xbe9dd18b	-0.3082393
50	0xbea5e822	-0.32403666
51	0xbea52946	-0.32258052
52	0x3dbe7f2b	0.09301599
53	0x3cf804c1	0.030275704
54	0x3d501e8a	0.050810374
55	0x3e979514	0.29605925
56	0xbd21fdbd	-0.039548624
57	0xbd90d352	-0.07071556
58	0x3d55216e	0.052033834
59	0x3dcbb05d	0.09945748
60	0xbd1cf0e6	-0.038315676
61	0x3d901dc7	0.070369296
62	0x3e437d81	0.19090845
63	0x3e010a34	0.12601548
64	0x3ea3d39f	0.31997392
65	0x3e94c093	0.29053172
66	0xbde261f5	-0.1105384
67	0x3e050d55	0.12993367
68	0x3e743ea5	0.23852022
69	0x3d756c06	0.059917472
70	0xbd5a4cc5	-0.05329587
71	0x3e52c58a	0.20583168
72	0xbe96553d	-0.29361907
73	0x3e28617e	0.1644344
74	0x3e31e9dc	0.17374367
75	0xbe705a93	-0.23472051
76	0x3ceeaae5	0.029134223
77	0xbea5574b	-0.32293162
78	0xbde6ce79	-0.1126985
79	0xbd941cdb	-0.07232066
80	0x3e8b3214	0.27186644
81	0xbe5ce851	-0.21572997
82	0x3db8acb8	0.090173185
83	0x3d10857a	0.035283543
84	0xbe5d6ece	-0.216243
85	0xbd766505	-0.060154933
86	0x3e647a87	0.22312365
87	0xbe3e4342	-0.18580344
88	0x3d74e48a	0.059788264
89	0xbda20c6b	-0.07912525
90	0xbe9de270	-0.3083682
91	0x3da6bd73	0.08141603
92	0x3d16acc3	0.036785852
93	0xbdfff804	-0.12498477
94	0x3dab4744	0.08363202
95	0x3ecf722c	0.40516794
96	0xbbfef89c	-0.0077811014
97	0xbd3e4ffa	-0.04646299
98	0xbd74adcb	-0.059736054
99	0x3e0e05ac	0.13869351
100	0xbee71a28	-0.45137143
101	0x3d4455fa	0.047933556
102	0x3e2dc0ea	0.16968122
103	0xbe2633cc	-0.16230696
104	0x3d3e578a	0.046470203
105	0x3e140bd0	0.14457631
106	0x3e15d142	0.14630607
107	0x3d4f5cce	0.050625615
108	0xbd9471ee	-0.07248293
109	0x3cedebe5	0.029043147
110	0xbd266b2a	-0.040629543
111	0xbe0b9795	-0.13632043
112	0xbc81becf	-0.015838055
113	0x3dac513e	0.08413933
114	0xbdbf6f38	-0.09347385
115	0x3cc0a031	0.023513885
116	0xbd3b563a	-0.04573653
117	0x3dc71d23	0.09722354
118	0x3cd504bf	0.02600324
119	0xbe20fa37	-0.1572045
120	0xbcc84bd2	-0.024450216
121	0xbdd653c2	-0.10465194
122	0xbc9ea3e2	-0.019365255
123	0xbdb4bbee	-0.08824907
124	0xbd2760ef	-0.040863927
125	0xbdea57eb	-0.1144255
126	0xbd742a02	-0.059610374
127	0xbe39c409	-0.18141188
128	0x3d912ce9	0.07088644
129	0xbd8a9099	-0.06765861
130	0xbdcfded7	-0.10149925
131	0x3c1895dd	0.009313074
132	0xbe543fd6	-0.20727476
133	0xbdde59fd	-0.10857008
134	0x3e095f22	0.13415197
135	0xbe340db6	-0.17583355
136	0xbd6d6053	-0.05795319
137	0xbd4ae318	-0.04953298
138	0xbea4f314	-0.32216704
139	0xbe280e8d	-0.164118
140	0xbe9a96d9	-0.30193213
141	0xbe9c4438	-0.30520797
142	0xbc82d8b7	-0.015972478
143	0x3d1a9ced	0.037747312
144	0x3d52cf24	0.051467076
145	0x3e2e44af	0.17018388
146	0xbde158ee	-0.1100329
147	0xbd3f6c04	-0.04673387
148	0x3cddbf6c	0.027068816
149	0x3dea0893	0.11427417
150	0xbb5a8bb4	-0.003334743
151	0xbeaf25f0	-0.34208632
152	0xbe29439f	-0.16529702
153	0x3e3889f6	0.18021378
154	0x3d8c89fd	0.06862257
155	0x3df26dd9	0.11837358
156	0x3db61469	0.08890612
157	0xbe549023	-0.20758109
158	0xbda1e348	-0.079046786
159	0x3e231954	0.1592763
160	0xbe2f7da8	-0.17137778
161	0x3e18a3e6	0.14906272
162	0x3e3090a3	0.17242675
163	0xbda4e2fe	-0.08051108
164	0x3dd7dd49	0.10540254
165	0x3e8d6dee	0.27622932
166	0xbe2c922a	-0.16852632
167	0x3dae16fb	0.08500477
168	0xbe753240	-0.2394495
169	0x3c7c88a5	0.015413438
170	0x3e1dc2e7	0.1540638
171	0x3f1c6e21	0.61105543
172	0x3e9c179a	0.30486757
173	0xbe6a6830	-0.22891307
174	0x3e1272ba	0.14301577
175	0x3eb70c8d	0.35751763
176	0xbe9112f9	-0.28334787
177	0x3e351e9e	0.17687461
178	0xbe1827bc	-0.14858907
179	0x3e7d0bfd	0.24711604
180	0x3d338119	0.04382429
181	0x3daca7c6	0.08430438
182	0xbccdc28b	-0.02511718
183	0x3e5dfefc	0.216793
184	0xbe09e6a9	-0.13466896
185	0xbe57062c	-0.20998448
186	0xbd883b50	-0.06651938
187	0x3e5e92ae	0.21735641
188	0x3cf37351	0.029718073
189	0xbdf8e3c0	-0.12152815
190	0xbd6185bc	-0.05505918
191	0x3d21df95	0.039519865
192	0x3d4ec9d9	0.050485466
193	0x3d8c2b92	0.06844248
194	0x3e1162da	0.14197865
195	0xbeaadd56	-0.3337199
196	0xbc6f45dd	-0.014604059
197	0x3d9d5a0b	0.0768319
198	0xbc71cdca	-0.014758537
199	0x3e1a38ea	0.15060773
200	0xbda66954	-0.081255585
201	0x3b1aa0cd	0.002359438
202	0x3c2c9c5c	0.010535326
203	0x3dddc550	0.1082865
204	0x3e5c4b32	0.2151306
205	0x3ce7941a	0.028268863
206	0x3e13c82e	0.14431831
207	0xbeabe939	-0.33576372
208	0x3dc61a94	0.09673038
209	0x3d88a1bd	0.06671474
210	0xbd26ae79	-0.040693734
211	0x3e26796e	0.16257259
212	0xbde4662e	-0.11152302
213	0xbe6395dc	-0.22225136
214	0xbe1aa4f1	-0.15101983
215	0x3e804191	0.25050023
216	0x3e0402be	0.12891671
217	0xbf0cb5cb	-0.54964894
218	0x3e244d02	0.16045001
219	0x3f0889b2	0.53335106
220	0x3dd26d39	0.10274739
221	0x3d7b9292	0.061419077
222	0x3dea904a	0.11453302
223	0xbd0c1d9e	-0.034207933
224	0x3ce1a376	0.027543765
225	0x3c20c981	0.009813667
226	0xbc5cc47b	-0.013474579
227	0x3ca822eb	0.020524463
228	0xbeda112f	-0.42591235
229	0x3d7642ec	0.060122415
230	0xbd8f5065	-0.06997756
231	0x3ea91ca9	0.33029678
232	0xbe794636	-0.2434319
233	0x3cae3524	0.021265574
234	0x3e35c757	0.17751823
235	0xbca6e9ce	-0.020375159
236	0xbcd41591	-0.02588919
237	0x3dbcd5d9	0.09220476
238	0x3e03f641	0.12886907
239	0x3d4ec35f	0.05047929
240	0x3b6e7917	0.0036388093
241	0xbeb5e400	-0.35525513
242	0xbd00af37	-0.031417098
243	0xbc834ab9	-0.016026841
244	0x3e21b216	0.1579059
245	0xbe891de5	-0.2678062
246	0x3d403acc	0.046931073
247	0xbe3d3468	-0.18477023
248	0x3c94e034	0.018173315
249	0x3e85173a	0.25994283
250	0xbdc8aa72	-0.09798135
251	0xbdd84752	-0.10560478
252	0xbb82942c	-0.0039849486
253	0x3ebe5d41	0.37180522
254	0x3e16719e	0.14691779
255	0xbe18e29a	-0.14930192

net.0.bias f4 [256]
0	0xbe2c7630	-0.1684196
1	0xbe04680d	-0.12930317
2	0xbcc7ec4e	-0.024404671
3	0xbe27c6ab	-0.1638438
4	0xbd139c02	-0.036037453
5	0xbb078b1f	-0.0020682288
6	0x3e1cde7c	0.15319246
7	0x3ec076db	0.3759068
8	0xbdc87413	-0.097877644
9	0xbdf2ce1c	-0.118557185
10	0xbde2a4b9	-0.110665746
11	0xbdbaff67	-0.091307454
12	0xbd51d134	-0.051224902
13	0x3b720d69	0.0036934263
14	0x38f1b7bc	0.00011525999
15	0xbc9967b2	-0.018726204
16	0xbe094f85	-0.1340924
17	0xbd05c950	-0.03266269
18	0xbdc6e59a	-0.09711762
19	0xbdfa54e6	-0.12223224
20	0xbe1dce77	-0.15410791
21	0xbe220b68	-0.15824664
22	0xbd08df75	-0.03341623
23	0xbdbd370f	-0.09239017
24	0xbe4ddce4	-0.20103794
25	0xbe120bc6	-0.14262304
26	0xbe177641	-0.14791204
27	0x3c57f41b	0.013180758
28	0xbc42b095	-0.011882921
29	0xbdad476e	-0.0846089
30	0xbddfbdeb	-0.10924896
31	0xbded6cff	-0.11593055
32	0x3b03a51e	0.0020087431
33	0xbd7a0b9f	-0.06104624
34	0xbe46e911	-0.19424845
35	0xbdc852a9	-0.09781391
36	0xbca3c268	-0.019990161
37	0xbddfbf93	-0.10925212
38	0xbdee71da	-0.11642809
39	0xbdded769	-0.1088093
40	0xbe04fa34	-0.1298607
41	0xbe7fe086	-0.24987993
42	0xbcbaeeba	-0.022818912
43	0xbe386006	-0.1800538
44	0xbdf40317	-0.11914652
45	0xbda98dec	-0.082790226
46	0xbcbf0393	-0.023317134
47	0xbbf4dc52	-0.0074725533
48	0xbc9afc6d	-0.018919194
49	0xbe046804	-0.12930304
50	0xbe18ff3d	-0.14941116
51	0x391cf8be	0.00014969983
52	0xbd3db813	-0.046318125
53	0xbdff7f74	-0.12475482
54	0xbdac1bd9	-0.08403749
55	0xbe252c9f	-0.16130303
56	0xbc8dfadf	-0.017331539
57	0xbc83b97a	-0.016079653
58	0xbc238ca6	-0.009982264
59	0xbdf55325	-0.11978749
60	0xbcfb8e7e	-0.030707594
61	0xbca12ffb	-0.0196762
62	0xbe5b892b	-0.21439044
63	0xbddba747	-0.10725265
64	0xbdb055f0	-0.08610141
65	0xbe0e8c69	-0.1392075
66	0xbd353208	-0.044237167
67	0xbdf797a3	-0.12089469
68	0x3be386e9	0.006943573
69	0xbe09a5b9	-0.13442124
70	0xbde99741	-0.114058025
71	0xbddb37c5	-0.107039966
72	0xbe3a5025	-0.18194635
73	0xbc026eb7	-0.007960967
74	0xbcf70308	-0.030152813
75	0xbe04bb06	-0.12961969
76	0xbdc317d9	-0.09526033
77	0x3ccb9a2a	0.024853785
78	0xbd110548	-0.035405427
79	0xbd898526	-0.06714849
80	0xbcc947a4	-0.024570294
81	0xbdf52809	-0.11970527
82	0xbd542d87	-0.05180123
83	0xbd445d2e	-0.047940426
84	0xbe4b4e57	-0.19854103
85	0x3c1772eb	0.009243707
86	0xbd32988c	-0.04360251
87	0xbdf9fa35	-0.12205926
88	0x3c380c70	0.011233434
89	0xbd7de83e	-0.06198906
90	0xbd0ae2df	-0.033907767
91	0xbe3ce731	-0.18447568
92	0xbd2a7b6e	-0.041621618
93	0xbe19eb0c	-0.1503107
94	0xbdae8e04	-0.08523181
95	0xbe0be011	-0.13659693
96	0xbca12f8e	-0.019675996
97	0xbe1a61a4	-0.1507631
98	0xbe19483d	-0.14968963
99	0xbde629aa	-0.112384155
100	0x3e019a3e	0.12656495
101	0xbc73d58f	-0.014882459
102	0xbe1961d5	-0.14978726
103	0xbca352d5	-0.019936958
104	0xbdd95e38	-0.10613674
105	0xbcb01135	-0.02149258
106	0xbe637084	-0.2221089
107	0xbd0fd412	-0.035114355
108	0xbd224844	-0.0396197
109	0xbcdc3d30	-0.026884645
110	0xbe063a45	-0.13108166
111	0xbde607fb	-0.11231991
112	0xbcf5b2ee	-0.029992547
113	0xbe04e6bd	-0.12978645
114	0xbe10de46	-0.1414729
115	0xbc06932e	-0.008213801
116	0xbc1290bf	-0.008945643
117	0xbcaead33	-0.021322822
118	0xbdac326d	-0.084080555
119	0xbe614ba6	-0.22001514
120	0xbdf1e7c7	-0.11811786
121	0xbcf9e0a5	-0.030502627
122	0xbccd303a	-0.02504741
123	0xbdfa1782	-0.12211515
124	0xbe31b836	-0.17355427
125	0xbd0ad734	-0.03389664
126	0xbd5ba573	-0.05362458
127	0xbddae423	-0.10688045
128	0xbdea1265	-0.1142929
129	0xbd39d488	-0.0453687
130	0xbdb65460	-0.08902812
131	0xbe55f1f6	-0.20893082
132	0xbc84d14f	-0.016213087
133	0xbe1771fd	-0.14789577
134	0xbca3eb25	-0.020009587
135	0x3dd7a88a	0.10530193
136	0xbd233458	-0.03984484
137	0xbe4767b6	-0.19473156
138	0xbdfd43cf	-0.12366449
139	0xbd0faa18	-0.035074323
140	0xbdfe1dbb	-0.124080144
141	0xbd9720bd	-0.07379291
142	0xbd9a368a	-0.07529934
143	0xbd307f68	-0.043090254
144	0xbe26a6bd	-0.16274543
145	0xbcb2f24e	-0.021844056
146	0xbd006d56	-0.03135427
147	0xbca7d3e6	-0.020486783
148	0x3cba5447	0.022745265
149	0xbd23798b	-0.039910834
150	0xbd3873a7	-0.04503217
151	0xbdd16916	-0.10225122
152	0xbd8e1a9f	-0.06938671
153	0xbc76584d	-0.015035701
154	0xbe32ca39	-0.17459954
155	0x3ca11536	0.019663434
156	0xbe14466f	-0.14479993
157	0xbd229436	-0.039692126
158	0x3c63a1dd	0.013893572
159	0xbde02146	-0.109438464
160	0xbcedb95a	-0.029019047
161	0xbdf0ac2c	-0.11751589
162	0xbdcb2db4	-0.099208266
163	0xbdf1b578	-0.118021905
164	0xbd96a2f9	-0.07355303
165	0xbe00385d	-0.12521501
166	0xbe2bb354	-0.16767627
167	0xbcfdb7f5	-0.030971507
168	0xbe015df8	-0.12633502
169	0xbd299ca8	-0.041409165
170	0xbe3b73c0	-0.18305874
171	0xbe1a5ca2	-0.15074399
172	0xbe0beb9c	-0.13664097
173	0xbd95d762	-0.07316472
174	0xbd245344	-0.04011847
175	0xbe1d7f48	-0.15380585
176	0xbc064d63	-0.008197161
177	0xbe312cce	-0.17302248
178	0xbe05c9ea	-0.13065305
179	0xbd2e8fa3	-0.04261745
180	0xbd32b24d	-0.043627072
181	0xbe19ecfa	-0.15031806
182	0xbd899cc3	-0.06719353
183	0xbe20e8d9	-0.15713824
184	0xbd09c110	-0.033631384
185	0xbd8961a8	-0.067080796
186	0xbd382d45	-0.044965047
187	0xbe31f8d8	-0.17380083
188	0xbdf0eaeb	-0.11763557
189	0xbe05cc06	-0.1306611
190	0xbcdb3c95	-0.026762286
191	0xbdc60cf2	-0.09670438
192	0xbc9f5141	-0.019447925
193	0xbd45aff9	-0.048263524
194	0x3ca9e648	0.02073969
195	0xbe05ed20	-0.13078737
196	0xbd22e560	-0.03976953
197	0xbdecd706	-0.1156445
198	0xbe023c41	-0.12718298
199	0xba4295ab	-0.0007422815
200	0xbd1e7be2	-0.038692363
201	0xbc6e1b76	-0.014532914
202	0xbe09877e	-0.13430592
203	0xbbee4b50	-0.0072721615
204	0xbd0c0da2	-0.03419269
205	0xbd5b87fd	-0.053596485
206	0xbe323979	-0.17404737
207	0xbdf5b03a	-0.11996503
208	0xbe3aa32d	-0.18226309
209	0x3c8bee8b	0.01708152
210	0xbcef65af	-0.029223291
211	0x3cb6cfdf	0.022315918
212	0xbc9820a6	-0.018570255
213	0xbe77132a	-0.24128404
214	0xbc6012ac	-0.013676327
215	0xbe1533fb	-0.1457061
216	0xbd84678c	-0.064650625
217	0xbdef351e	-0.11680053
218	0xbd2350ae	-0.039871864
219	0x3d0fba04	0.035089508
220	0xbd71b269	-0.059008036
221	0xbd717581	-0.05894995
222	0xbd71952c	-0.058980152
223	0x3e34a55e	0.17641208
224	0xba9cee1e	-0.001197282
225	0xbe5234a4	-0.20527893
226	0xbe23a910	-0.15982461
227	0xbd9dfa53	-0.07713761
228	0xbe22de24	-0.15905052
229	0xbda91c7f	-0.08257388
230	0xbd41beb0	-0.047300994
231	0xbdc288f4	-0.09498778
232	0xbdb55c75	-0.088555254
233	0xbc332c31	-0.010935829
234	0x3977bbb0	0.00023625675
235	0xbd25cefb	-0.040480595
236	0x3c18c4de	0.009324281
237	0x3bf535ed	0.007483235
238	0xbdc6c4f5	-0.09705535
239	0xbc35dfb1	-0.0111006955
240	0xbdefb9b9	-0.11705346
241	0xbd813f71	-0.063109286
242	0x3d0d7d4a	0.034543313
243	0xbd1297d6	-0.035789333
244	0xbc10987c	-0.008825418
245	0xbdc012dd	-0.09378598
246	0xbe2232c3	-0.15839677
247	0xbe2918b6	-0.16513333
248	0xbe3171f1	-0.17328621
249	0xbde262bc	-0.11053988
250	0xbe13b131	-0.14423062
251	0xbe18dd4e	-0.14928171
252	0x3acab593	0.001546549
253	0xbe00f5c3	-0.1259375
254	0x3b8e9166	0.004350829
255	0xbe5231e8	-0.2052685

net.2.weight f4 [64, 256]
0	0xbc69f751	-0.014280156
1	0x3e883611	0.2660375
2	0x3c0a1570	0.008427963
3	0x3e5a109f	0.21295403
4	0x3c610e28	0.013736285
5	0x3d4c644c	0.049900338
6	0x3d91c4d3	0.07117619
7	0xbdbde9a4	-0.09273079
8	0x3d27213c	0.04080318
9	0xbdde04b0	-0.10840738
10	0x3cbd0767	0.023074819
11	0xbb4c0460	-0.0031130537
12	0x3d5f7322	0.05455316
13	0xbd1543a4	-0.03644146
14	0xbce5ecbb	-0.028066983
15	0xbcdfba3c	-0.027310483
16	0x3e3f6314	0.18690139
17	0xbbb32310	-0.0054668263
18	0x3ea6faf6	0.32613343
19	0x3ec889fd	0.39167777
20	0x3ec99280	0.39369583
21	0xbe27cce9	-0.16386761
22	0xbd551eb8	-0.05203125
23	0x3e6c9a2c	0.23105687
24	0x3ccb4c24	0.02481658
25	0x3e1d16eb	0.15340774
26	0x3eaee094	0.34155715
27	0xba2f5080	-0.00066877156
28	0xbc9813f8	-0.01856421
29	0xba5ed64d	-0.0008500561
30	0x3e8e7ffd	0.27832022
31	0x3deb4c93	0.11489215
32	0xbb4337a0	-0.0029787794
33	0x3bc51774	0.0060147587
34	0x3d5e4db9	0.05427334
35	0xbd671aaa	-0.056421913
36	0x3c419168	0.011814453
37	0x3d5e867a	0.054327466
38	0xbd2e5eb3	-0.04257078
39	0x3f0c3b35	0.5477784
40	0xbe4ffc22	-0.20311025
41	0x3dc06610	0.09394467
42	0x3ba21200	0.0049459934
43	0x3db91bb0	0.09038484
44	0xbe73e98b	-0.23819558
45	0x3eb72236	0.35768288
46	0xbc8a459c	-0.016878895
47	0xbcefe018	-0.02928166
48	0xbd16c6e2	-0.036810763
49	0xbd1be44a	-0.03805951
50	0x3ea55f35	0.322992
51	0x3d411bae	0.047145538
52	0x3cf1d3e4	0.029519983
53	0x3e1fc741	0.15603353
54	0xbe0cd570	-0.13753295
55	0x3eae5e32	0.3405624
56	0xbc9ecbb0	-0.019384235
57	0x3ca6b238	0.020348653
58	0xbd59b97c	-0.053155407
59	0xbe7997fa	-0.2437438
60	0xbd7d9a90	-0.06191498
61	0xbd4405cf	-0.047857102
62	0x3d545d67	0.051846888
63	0x3c9eb766	0.01937456
64	0x3e1583f0	0.14601111
65	0x3d984bcb	0.07436331
66	0x3d46cd64	0.04853572
67	0x3e14d430	0.14534068
68	0xbd4de884	-0.050270572
69	0x3f251662	0.6448728
70	0x3e05ec0a	0.13078323
71	0xbe6f887b	-0.23391907
72	0xbe42393f	-0.1896715
73	0xbad64d80	-0.0016350001
74	0x3c936088	0.017990366
75	0xbe5aa164	-0.21350628
76	0xbb77a34a	-0.0037786537
77	0x3d3c3cc8	0.045956403
78	0xbd4d777c	-0.050162777
79	0xbd65ecb4	-0.05613394
80	0xbe9e4feb	-0.30920348
81	0xbe5d67ce	-0.2162163
82	0xbd3e4e00	-0.046461105
83	0xbf1563c3	-0.5835535
84	0xbea6c81c	-0.32574546
85	0xbd7911c0	-0.060807943
86	0x3de9a439	0.11408276
87	0xbe003fef	-0.12524389
88	0x3d5d059e	0.053960435
89	0x3e540797	0.2070602
90	0x3d364f71	0.044509355
91	0xbe551272	-0.20807818
92	0xbe858142	-0.26075178
93	0x3e98194e	0.29706806
94	0x3e456224	0.19275719
95	0xbdf55d2f	-0.11980664
96	0x3e03b27a	0.12861052
97	0xbdf01dbd	-0.11724422
98	0x3e1a04ef	0.15040945
99	0x3d9d446f	0.07679068
100	0x3ef6c4d5	0.48197046
101	0x3d64e47a	0.055881955
102	0xbe4e532d	-0.20148917
103	0x3d61c444	0.055118814
104	0xbd75af80	-0.059981823
105	0x3debd43a	0.115150884
106	0x3adf3f5d	0.0017032434
107	0x3d3a1ec6	0.045439504
108	0xbc844134	-0.016144373
109	0x3d1ff23c	0.039049372
110	0x3e9e14cb	0.3087524
111	0xbe2582b6	-0.16163144
112	0xbc8f79f9	-0.017514216
113	0x3f02f97e	0.51161945
114	0xbe4d7891	-0.20065524
115	0x3d2854f6	0.04109665
116	0x3cdaae9c	0.026694588
117	0x3c26a898	0.010172032
118	0xbdb4af3c	-0.08822486
119	0xbd7c06c2	-0.061529882
120	0x3ed12d4d	0.40854874
121	0xbd048534	-0.032353595
122	0x3e11c008	0.1423341
123	0xbe29ec2a	-0.16593996
124	0x3ec5d040	0.38635445
125	0xbe4778e5	-0.19479711
126	0x3f02ac07	0.5104374
127	0xbd698380	-0.057010174
128	0xb9de2f00	-0.00042378157
129	0x3c9b6bd4	0.018972315
130	0xbca4fcb4	-0.02014003
131	0xbe0c14bb	-0.13679783
132	0x3d2827a4	0.04105343
133	0xbe6985b8	-0.22804916
134	0xbe45a533	-0.193013
135	0xbde7f406	-0.11325841
136	0x3b8665d4	0.0041014943
137	0x3e6d8c48	0.23198044
138	0xbd773f7b	-0.060363274
139	0xbd281b30	-0.041041553
140	0xbe3f0565	-0.18654402
141	0x3e6907ce	0.22756884
142	0xbd04d8aa	-0.03243319
143	0xbd48e9d0	-0.049051106
144	0xbb844e50	-0.004037656
145	0x3d166cec	0.03672497
146	0x3cc9e4b8	0.024645194
147	0xbad1a3c0	-0.0015994236
148	0xbb7b6c20	-0.0038364008
149	0x3cb3e123	0.02195794
150	0xbe1910be	-0.14947793
151	0x3e8ba55c	0.27274597
152	0x3e01aa7c	0.12662691
153	0x3c188888	0.009309895
154	0x3cab53d6	0.020914
155	0x3edd343b	0.4320391
156	0x3eacf627	0.3378155
157	0xbc9fb5f8	-0.01949595
158	0xbd78a596	-0.06070479
159	0x3d57f6e0	0.052725673
160	0xbcbfd2f5	-0.023416022
161	0x3e1c1cc5	0.1524535
162	0x3c8ea0cc	0.017410658
163	0xbe2a426f	-0.16626905
164	0x3e145e13	0.14489011
165	0x3e2cceaf	0.16875719
166	0xbe1c9f9d	-0.15295263
167	0xbd1efc18	-0.038814634
168	0x3e594a8c	0.21219844
169	0x3d398b60	0.045298934
170	0xbd33da3c	-0.043909296
171	0xbe0a77b7	-0.1352223
172	0x3e0089ca	0.12552562
173	0x3d8da6f0	0.069166064
174	0xbd6b25c6	-0.05740907
175	0x3e8d77cf	0.2763047
176	0xbbed2ab0	-0.0072377548
177	0x3ead505f	0.3385038
178	0x3d2d97e5	0.042381186
179	0xbc3f4668	-0.011674501
180	0x3d774ae4	0.060374156
181	0xbd259048	-0.0404208
182	0xbedf2774	-0.43584788
183	0x3ddf566f	0.10905158
184	0x3ca7e20c	0.02049353
185	0xbe17c986	-0.14822969
186	0xbcef02d4	-0.029176153
187	0x3de243fa	0.11048122
188	0xbe0efad4	-0.13962871
189	0x3d6b6995	0.057473738
190	0x3d1a4730	0.037665546
191	0xbd1a10b9	-0.037613604
192	0xbd78d2c2	-0.06074787
193	0xbcececac	-0.028921448
194	0xbd4db4cc	-0.05022125
195	0x3da27cd4	0.07933965
196	0x398d6e00	0.00026975572
197	0xbe88a61c	-0.2668923
198	0x3e4c4dc0	0.19951534
199	0x3d7f3be8	0.06231299
200	0xbc2b4220	-0.010452777
201	0xbc3125a0	-0.010812193
202	0xbe72843d	-0.23683257
203	0xbcefa6d4	-0.029254355
204	0xbb58ff00	-0.0033110976
205	0x3d530cba	0.05152581
206	0xbddfc542	-0.10926296
207	0x3c095e4a	0.008384297
208	0xbeb3b46e	-0.35098594
209	0xbb1e7f40	-0.0024184734
210	0xbcca2184	-0.024674185
211	0x3e0314d9	0.12800921
212	0xbeb62085	-0.35571685
213	0xbc813ca9	-0.015775995
214	0xbd6ee702	-0.058325775
215	0x3dd34935	0.103166975
216	0xbe3ad301	-0.18244554
217	0x3ee05b29	0.4381955
218	0xbc8a5018	-0.016883895
219	0x3d9e19f5	0.07719795
220	0xbe279a6f	-0.16367505
221	0xbcb97d1c	-0.022642665
222	0xbd4889a4	-0.04895939
223	0x3effefae	0.4998755
224	0x3cc3a16c	0.023880683
225	0xbe8dba1e	-0.2768106
226	0x3e36e0e8	0.17859232
227	0xbe51fbd4	-0.20506221
228	0xbda1f320	-0.079077005
229	0x3c4a1c10	0.012335792
230	0x3d31ff3e	0.04345631
231	0x3e25e4b0	0.16200519
232	0xbcce5d97	-0.025191111
233	0x3c8302a0	0.015992463
234	0x3d5ecb25	0.054392952
235	0x3c165230	0.009174868
236	0x3d50dbd8	0.05099091
237	0x3c40a608	0.011758335
238	0xbd021f8a	-0.03176836
239	0x3c671df2	0.014106261
240	0x3e2eee24	0.17083031
241	0x3d2d83c2	0.042361982
242	0x3f05e64d	0.52304536
243	0x3d2525ae	0.040319137
244	0x3bb8ba00	0.0056374073
245	0xbe91c1b3	-0.28468093
246	0x3d3fbe46	0.04681232
247	0x3e8e12ae	0.27748626
248	0xbe84f3dd	-0.25967303
249	0x3d00bcb6	0.03142997
250	0x3d9c9986	0.0764647
251	0xbd8bc478	-0.06824583
252	0x3d15d7d0	0.036582768
253	0xbe7041a6	-0.23462543
254	0x3d59bf82	0.05316115
255	0xbe09046f	-0.13380598

net.2.bias f4 [64]
0	0xbe4d00cd	-0.20019837
1	0x3c1abda2	0.009444626
2	0xbdd9ef26	-0.10641317
3	0xbf5a4085	-0.852547
4	0xbda7c026	-0.08190946
5	0xbd5df373	-0.05418725
6	0x3e8a24c5	0.26981178
7	0xbf219353	-0.63115424
8	0xbf515fa5	-0.81786567
9	0xbf0e7e71	-0.55661684
10	0xbf2c8b24	-0.6739981
11	0xbd77e165	-0.060517687
12	0x3d8e0e93	0.069363736
13	0xbf45bdaf	-0.7724256
14	0xbdca0034	-0.0986332
15	0xbee4ae54	-0.44664252
16	0xbde534bc	-0.11191699
17	0xbd35b7c1	-0.044364695
18	0xbdd967b6	-0.106154844
19	0xbf281370	-0.6565466
20	0xbd06c46e	-0.032902174
21	0x3ed643ba	0.41848546
22	0xbef9a6dc	-0.48760116
23	0xbd2ef2bf	-0.04271197
24	0xbe19e625	-0.150292
25	0x3da660c2	0.08123924
26	0x3e73dcb9	0.23814668
27	0xbf0462d3	-0.51713294
28	0xbea0065c	-0.31254852
29	0xbef7fc9b	-0.4843491
30	0xbee6e26e	-0.45094627
31	0xbdb18aa5	-0.086690225
32	0xbef0f0be	-0.47058672
33	0xbde060ee	-0.10955988
34	0xbd3302c0	-0.043703794
35	0x3e5eec3d	0.21769805
36	0xbf6ca7f3	-0.9244377
37	0x3eedbf7e	0.4643516
38	0xbef4ba47	-0.47798368
39	0x3eb950f3	0.36194572
40	0xbdb010c9	-0.085969515
41	0xbe118244	-0.14209849
42	0xbea498e0	-0.32147884
43	0xbf11e81d	-0.569948
44	0xbd1eead0	-0.038798153
45	0xbeea49a8	-0.4575932
46	0xbd829ca4	-0.06377533
47	0xbf10a365	-0.5649932
48	0xbed95bb5	-0.4245278
49	0x3ed76c32	0.42074734
50	0xbd353a75	-0.044245202
51	0x3bf94b0b	0.007607823
52	0xbcaa957c	-0.020823233
53	0xbd95d6b4	-0.07316342
54	0xbf1c7967	-0.61122745
55	0xbf2a3f6e	-0.66503036
56	0xbcdc7ad9	-0.026914047
57	0xbf0e06ab	-0.55478925
58	0xbe3ed463	-0.18635707
59	0xbdbb7aa8	-0.09154254
60	0xbef977f9	-0.48724344
61	0x3f01ba9d	0.50675374
62	0xbe002cbd	-0.12517066
63	0xbd7d7973	-0.0618834

net.4.weight f4 [1, 64]
0	0x3ea89bb9	0.32931307
1	0x3b3b1458	0.0028546061
2	0x3bbac8ba	0.005700198
3	0xbeeddafd	-0.46456137
4	0x3d1aedb5	0.03782435
5	0x3d0c3c07	0.034236934
6	0x3e7d9264	0.24762875
7	0x3c97c1f3	0.0185251
8	0xbe0be906	-0.1366311
9	0xbe169dfb	-0.14708702
10	0xbdbb53f2	-0.09146871
11	0x3d91e0d1	0.071229585
12	0x3e7d782b	0.24752872
13	0x3ce24457	0.027620478
14	0x3cbb881c	0.02289205
15	0xbe455fea	-0.1927487
16	0x3ca169be	0.019703742
17	0xbbda0150	-0.0066529885
18	0x3a5c56c4	0.0008405263
19	0xbdd4443e	-0.10364579
20	0x3c8f4796	0.01749019
21	0x3f122fd1	0.5710421
22	0xbd15643c	-0.036472544
23	0x3ca59f81	0.020217659
24	0x3da741b9	0.081668325
25	0x3e656015	0.22399934
26	0x3eb38a10	0.3506627
27	0xbe62ef61	-0.22161628
28	0xbe00cf6f	-0.1257913
29	0xbe23dde7	-0.16002618
30	0xbe1b8808	-0.1518861
31	0x3c8b321d	0.01699167
32	0xbe51a9ea	-0.20474973
33	0x3b03d068	0.0020113233
34	0x3d1b5bc9	0.03792933
35	0x3f08cc31	0.5343657
36	0xbe333a75	-0.17502768
37	0x3f080b1f	0.5314197
38	0xbd2586da	-0.040411808
39	0x3eee8d35	0.46592107
40	0x3d0bef0b	0.034163516
41	0xbb5004e0	-0.0031741187
42	0x3c2b5e02	0.010459425
43	0xbde269f5	-0.11055366
44	0x3c0b67a5	0.0085085975
45	0xbe22dfe4	-0.1590572
46	0x3b371e3e	0.002794161
47	0xbd0e4691	-0.034735266
48	0xbdae8535	-0.08521501
49	0x3f018996	0.50600564
50	0xbc14d9ad	-0.009085101
51	0x3e245159	0.16046657
52	0x3c5ba197	0.013405225
53	0xbcca33a2	-0.024682824
54	0xbe4966fd	-0.19668193
55	0xbe0d3a51	-0.13791777
56	0x3d7bab0a	0.061442412
57	0x3bf5d41e	0.007502093
58	0x3bcb4569	0.0062033427
59	0x3d88521f	0.06656288
60	0xbc29e3b0	-0.010369226
61	0x3f10ea1c	0.5660722
62	0x3beb4fdd	0.0071811513
63	0x3d0966db	0.033545356
